weights/best.pt (torch, 413010 bytes, 62 tensors)

encoder.0.weight f4 [32, 2, 3, 3]
000000 ee 76 0a 3d 85 84 2d 3e 36 b6 15 be 5d c6 b1 bd
       0.033804826 0.16945083 -0.14620289 -0.08680413
000010 e0 e1 a5 bd 6d 3e 19 3e 7a 86 55 3d 63 71 3f be
       -0.08099723 0.1496522 0.0521302 -0.18695597
000020 42 4c 96 3d 4e 3b 26 be f9 ec 31 be bf 3c ab bd
       0.07338764 -0.1623356 -0.17375554 -0.08361196
000030 65 4e 4a 3e 9c 26 0b be 6d 42 73 be d5 69 33 3e
       0.19756468 -0.13588947 -0.23755808 0.1752084
000040 3c 2e 5d be bd 7a 43 3e 42 f6 0a bd 98 3a ba bd
       -0.21599668 0.1908979 -0.033926256 -0.09093207
000050 35 43 4c 3e 40 51 6b 3e 8e c0 1d be 80 89 78 3e
       0.19947512 0.22980213 -0.15405485 0.24271202
000060 4b 85 af bd e7 13 14 3e af ab 54 3e 06 4a 38 3e
       -0.085703455 0.14460717 0.20768617 0.17996988
000070 55 05 24 3e 49 ab db bd 7f 9d 1d be 5a 37 fa bd
       0.16017659 -0.107260294 -0.15392111 -0.12217589
000080 c7 05 9e 3d fe 1d fd bd d5 9b 2a be b5 24 b4 3d
       0.07715946 -0.12359236 -0.16661008 0.08796064
000090 50 7f 66 be 3e 8c f7 3d 41 85 50 bd 56 54 3c 3e
       -0.22509503 0.12087296 -0.05090833 0.18391547
0000a0 71 76 d0 3d 4f 3e 23 3e 03 11 48 be 8d a0 89 bd
       0.10178841 0.15941738 -0.1953774 -0.06720076
0000b0 93 04 ab bd 9e a0 93 bd 8d d4 79 3e 28 ad 41 be
       -0.08350482 -0.0720837 0.24397488 -0.1891371
0000c0 b3 7d c9 3d 2a 85 08 3e 2e 3c c3 3d 79 af 51 3e
       0.09838428 0.13332048 0.09532963 0.20477094
0000d0 9c 9b 13 be 65 ce ed bb 46 22 0c be 23 72 8c bb
       -0.14414829 -0.00725727 -0.1368495 -0.004286067
0000e0 ec 45 0a be 3d 14 01 be 8d ee db bd 62 c5 37 3c
       -0.13503236 -0.12605377 -0.10738859 0.011216493
0000f0 68 61 a2 3d ba 76 35 be b8 06 4e bc 9e c5 14 bd
       0.07928735 -0.17721072 -0.012574844 -0.036321275
000100 e9 22 79 3e 91 e7 4d 3d ff c5 61 be 45 e3 1c bc
       0.24329723 0.050269667 -0.22048186 -0.00957567
000110 b5 73 f2 3d ee bf 4f be 4b 2f ce bc 39 f6 c8 bd
       0.118384756 -0.20288059 -0.025169035 -0.09812588
000120 df 6c d3 3d e9 c3 48 bd 9b 59 00 be 7a d2 cc bc
       0.103235 -0.04901496 -0.12534182 -0.025002707
000130 c8 4f 41 3e 67 7c 80 3e bf 1b e1 bd 05 1f bd 3c
       0.1887809 0.2509491 -0.1099162 0.02308608
000140 23 ce f6 bd 8a 27 f1 3d 86 30 96 3d 77 72 37 be
       -0.12051036 0.117751196 0.07333474 -0.17914759
000150 81 11 af bd 6b 23 a3 3d 88 2e 03 be f2 1d 82 3d
       -0.085482605 0.0796574 -0.12810719 0.06353368
000160 24 db 3e bd d5 1d 27 be 1f 23 4c be cd dc 80 be
       -0.046595708 -0.16319974 -0.19935273 -0.25168458
000170 93 d5 1a 3e 6d 34 31 bd b0 12 2c 3e 46 95 9e 3d
       0.15120535 -0.043262888 0.16804004 0.077433154
000180 7f 26 3e 3e 5f 3d 82 3d 09 a4 6e be 4c aa 66 3e
       0.18569373 0.06359362 -0.23304762 0.225259
000190 4a 45 19 be 36 5b 6e be 60 dc a4 3d 44 9f ea bd
       -0.14967838 -0.23276982 0.08049846 -0.11456159
0001a0 c3 85 8f bd 52 1f 78 3e 33 c0 b3 bd b6 3a 39 3e
       -0.07007935 0.24230698 -0.087768935 0.18088803
0001b0 24 fc f8 3d 96 85 0b be c9 9d ca bd 33 55 5d 3e
       0.12157467 -0.13625178 -0.098933764 0.21614532
0001c0 bc 9c 9d 39 6c d5 40 3e e7 2d c2 bd 06 a9 16 bd
       0.0003006215 0.18831414 -0.094814114 -0.036782287
0001d0 71 a1 76 bd c9 08 3d be 83 c2 33 be e3 1e a9 bd
       -0.060212556 -0.18460383 -0.17554669 -0.08257844
0001e0 87 ad 40 3e ff 9b 0d 3e 54 28 84 3a 1a 30 42 3e
       0.18816195 0.13829039 0.001008282 0.18963662
0001f0 61 14 58 be b6 66 32 be 48 d2 40 3e c1 28 b8 3d
       -0.21101524 -0.17421994 0.18830216 0.08992148
000200 a3 0d 53 be d7 1a 34 3d 69 38 0e bd da b2 11 3d
       -0.20610671 0.04397091 -0.034721766 0.035570957
000210 dd b4 26 be 38 c6 27 3e 4c 94 0b be 31 a7 1b be
       -0.16279931 0.16384208 -0.1363079 -0.15200497
000220 80 d3 13 be 76 9f f7 bd ea 2c ee bd da d3 b3 3d
       -0.1443615 -0.12090962 -0.116296604 0.08780642
000230 16 73 eb 3d 0e 21 05 be a6 9b ba 3d c5 b1 41 3d
       0.1149656 -0.1300089 0.09111719 0.047288675
000240 25 7d 04 be d0 e0 98 3c 81 06 42 3e ed 20 5d 3e
       -0.12938364 0.018661886 0.18947794 0.21594591
000250 d6 d6 36 3e 24 30 1f be 22 0b c2 3d 0e df bd 3d
       0.17855391 -0.15545708 0.0947478 0.0927106
000260 d1 30 6b be 60 ef 93 3c 12 d5 80 3d 0c e8 03 3e
       -0.2296784 0.018058479 0.0629064 0.12881488
000270 39 59 bf 3d 1c 48 18 be 82 ec 7e 3d 52 d9 30 3e
       0.0934319 -0.14871258 0.06223727 0.17270401
000280 d4 54 8f 3d e5 6b 06 3d 47 11 73 3e 21 69 5c 3e
       0.069986016 0.03281774 0.2373706 0.21524478
000290 ad ba c2 bd f9 8d 29 be 6c f6 d1 bd cc 41 1e 3e
       -0.09508262 -0.16558065 -0.10252079 0.15454787
0002a0 a0 f2 6f be d5 98 47 3e 79 a8 16 be cc 05 58 3e
       -0.23432398 0.19491895 -0.14712705 0.21095961
0002b0 87 7f 06 bc 5c 0d 83 bd a8 43 2d 3e 3c 03 86 3e
       -0.008209116 -0.063990325 0.1692034 0.26174343
0002c0 6f 7a 36 3e d5 f4 25 38 7f 1a 4f be 87 cd 6f be
       0.17820142 3.9567083e-05 -0.20224951 -0.23418246
0002d0 89 cf 69 be 5c 3e 0c 3e 86 03 33 bd 15 a2 d1 bd
       -0.22833075 0.13695663 -0.043704532 -0.10235993
0002e0 c2 e1 d3 3d 24 27 16 be 94 16 ac 3d 39 48 05 3e
       0.10345794 -0.14663368 0.08402744 0.13015832
0002f0 7d 66 f7 3d 09 44 33 3e 08 50 f7 3c ed af 79 be
       0.12080095 0.17506422 0.030189529 -0.24383517
000300 c8 04 a1 bd 22 84 8b bd 81 b1 63 3e a8 fe 7d 3d
       -0.0786224 -0.06812312 0.22235681 0.062010437
000310 66 6c 73 be e9 3d 9d 3d 36 b8 4a 3e cf 8d 55 3e
       -0.2377182 0.07677824 0.19796833 0.20854877
000320 ef af c0 3d f7 77 98 3d b3 96 e6 bc 20 34 38 3c
       0.09408557 0.074447565 -0.02814803 0.011242896
000330 e3 c1 6b 3e 89 3d d7 bd f6 39 c0 bd 26 2b 51 be
       0.2302318 -0.10509784 -0.09386055 -0.20426616
000340 09 78 fb 3c e7 fd 41 3e a8 c7 16 3e 39 41 27 3e
       0.030696886 0.18944512 0.147246 0.16333474
000350 59 71 21 be f6 47 43 be a4 c8 3c be 14 77 19 3d
       -0.15765895 -0.1907042 -0.18435913 0.037467077
000360 0f ad 4a 3e f7 c0 10 be 88 30 a6 bd d0 38 f9 bd
       0.19792579 -0.1413611 -0.08114725 -0.12169039
000370 db 12 28 3e a5 d0 62 bd 77 61 f1 bc 1e a8 24 be
       0.16413443 -0.05537476 -0.02946542 -0.16079757
000380 5e b1 ed 3d 52 7b 24 3e 78 ec 43 be e9 d1 8b bc
       0.11606096 0.16062668 -0.19133174 -0.017067866
000390 d3 b2 ab bd 11 85 18 be 1f d8 36 3c 4b b2 81 3e
       -0.083837174 -0.14894511 0.011159926 0.2533134
0003a0 ed 47 2a 3d 18 c8 d2 3d 61 14 b1 3d d2 22 30 3e
       0.0415725 0.10292071 0.08646465 0.17200783
0003b0 a3 18 16 be 09 59 e8 3d da 65 45 bd 3f aa 23 be
       -0.14657836 0.11345107 -0.048192836 -0.15982912
0003c0 1b 29 97 3d 9f b6 35 3e 6b 8c 95 bd 18 ff 79 3d
       0.07380887 0.17745446 -0.07302173 0.061034292
0003d0 28 25 f7 3d a1 9d 3c 3d 10 41 e7 3d ef f0 42 be
       0.12067634 0.046048764 0.112917066 -0.19037221
0003e0 42 ed 23 3b 30 ae 75 be cf e7 9b 3d 49 a2 a9 bc
       0.0025013243 -0.23992229 0.07612573 -0.020707266
0003f0 47 8c 8b bd 66 34 25 3d 4a 64 03 3e 7a 0c 55 bd
       -0.06813865 0.040333174 0.12831226 -0.05201385

encoder.0.bias f4 [32]
000000 6d f3 1e be 8b 0a 23 3e 98 6c 39 be 5c 19 36 be
       -0.15522547 0.1592199 -0.18107831 -0.17783111
000010 02 ca 59 be 34 ea 26 3a fc 43 2f be 1b 5c 49 be
       -0.21268466 0.00063672964 -0.17115778 -0.19664042
000020 0c 82 df 3c 43 df 35 3e eb 72 41 bd bf 5a a7 3d
       0.02728369 0.17760949 -0.047228735 0.08171605
000030 ae 3e c1 bd 44 78 8a bd 7f 42 58 3e 71 92 29 3e
       -0.09435783 -0.0676122 0.21119116 0.16559769
000040 40 dc 66 be c0 b3 12 3e 2e ba 6a be c2 a8 fa bd
       -0.22544956 0.14326382 -0.22922584 -0.12239219
000050 0c 15 b8 3c db 18 1f bd c2 c4 bf 3d 9b c6 60 be
       0.022470973 -0.038842063 0.093637004 -0.21950762
000060 8d 22 7a 3d df 24 16 bd d6 e9 12 bd b2 d3 1f 3d
       0.061068106 -0.036656257 -0.035867535 0.039020248
000070 9d 61 30 be 9f 6c 3a 3e 2c 0f 3e be d7 2a 1e 3d
       -0.17224737 0.18205498 -0.18560475 0.038615074

encoder.1.weight f4 [32]
000000 38 e7 7b 3f 33 18 7e 3f 87 69 7b 3f d9 d2 80 3f
       0.98399687 0.99255675 0.98207897 1.0064346
000010 7d 41 79 3f da 9b 81 3f e6 a7 81 3f 98 70 80 3f
       0.9736555 1.0125687 1.0129364 1.0034361
000020 17 87 83 3f 9b 83 82 3f 7c 9a 80 3f 24 bd 80 3f
       1.0275601 1.0196413 1.0047145 1.0057721
000030 04 e0 82 3f 6c 41 82 3f ac ff 7c 3f e7 95 7c 3f
       1.0224614 1.0176215 0.98827624 0.9866623
000040 72 d0 7d 3f d7 ec 81 3f 06 35 7f 3f f0 3a 84 3f
       0.9914619 1.0150403 0.9969028 1.0330486
000050 35 30 74 3f ac 4b 80 3f 84 a0 7f 3f df 1b 82 3f
       0.9538606 1.0023093 0.998543 1.0164756
000060 84 1e 7a 3f be 65 7f 3f d4 06 7b 3f 95 37 7f 3f
       0.97702813 0.9976462 0.98057294 0.99694186
000070 47 41 7a 3f e7 ca 80 3f 73 63 81 3f b1 5b 7a 3f
       0.97755855 1.0061921 1.0108474 0.9779616

encoder.1.bias f4 [32]
000000 d7 fb 57 3c 6d 8a 81 3d a2 af cf bc 9a da 31 3d
       0.013182602 0.06325231 -0.025352303 0.043421365
000010 12 9f ff 3c cd e8 75 3c cb 4a 45 bc 49 1a 17 bc
       0.03120378 0.015009117 -0.012041758 -0.009222575
000020 9c c7 c6 3c 46 59 05 bc 02 42 81 bc 9a 75 4f 3b
       0.024265103 -0.00813896 -0.015778545 0.003165579
000030 e5 e2 f1 bb 0a f2 f4 3c 8e 28 0a 3d 28 fa 13 3d
       -0.0073817843 0.02990057 0.033730082 0.03612724
000040 6d 99 10 3c 99 f7 8f bb 92 88 c4 b9 19 c2 c9 3c
       0.008825642 -0.0043935296 -0.00037485786 0.024628686
000050 22 4d c6 bc 61 3a 82 3c 17 2f df bc e8 e9 78 bb
       -0.024206702 0.015896978 -0.027244134 -0.0037981216
000060 78 11 e4 3c 64 7b df 3c a0 d3 bd 3c ff f5 11 bc
       0.027840361 0.027280517 0.0231722 -0.008908748
000070 0e df 24 3d 0a ad d8 3c d8 b9 c2 3c b0 c4 9f 3c
       0.040251784 0.026449699 0.023770258 0.019502968

encoder.1.running_mean f4 [32]
000000 5e a4 21 be ef b7 28 3e 0f c9 3d be f9 56 2b be
       -0.15785357 0.16476415 -0.18533729 -0.16732396
000010 d1 1a 5d be ed 5d 59 bb fb 86 34 be d8 96 49 be
       -0.21592261 -0.0033167556 -0.17629616 -0.19686449
000020 6f 06 9f 3c 6b b1 34 3e 3b 90 35 bd 95 73 9d 3d
       0.019412247 0.17645805 -0.044327002 0.07688061
000030 ab 70 c3 bd 3c e4 8d bd 75 1e 58 3e 56 1f 2b 3e
       -0.09542974 -0.06928298 0.21105368 0.16711172
000040 7d 10 65 be 43 4e 0a 3e 86 4b 6c be ba 94 eb bd
       -0.22369571 0.13506417 -0.23075685 -0.11502977
000050 33 bc 96 3c ad 0b 38 bd 89 a5 bc 3d 1b e2 58 be
       0.018400287 -0.04493301 0.09211261 -0.21180002
000060 af 3b 7f 3d 03 b9 0c bd 4a e4 1c bd 3c 88 2a 3d
       0.062312778 -0.03435613 -0.03830365 0.04163383
000070 ae 50 2b be 2e be 3b 3e 81 96 3f be 7f 08 16 3d
       -0.16729996 0.18334267 -0.18709756 0.036629196

encoder.1.running_var f4 [32]
000000 ba 54 2a 3e 73 a7 26 3e 32 28 10 3e 27 bd da 3d
       0.16633883 0.16274814 0.14077833 0.10680609
000010 2c ae df 3d 42 5f 2a 3e fc 4e 14 3e 95 fd b2 3d
       0.109218925 0.166379 0.14483255 0.08739773
000020 f6 a2 00 3e 98 9b 6a 3e 12 17 08 3e e2 4e 0d 3e
       0.12562165 0.22910917 0.1329005 0.13799623
000030 d6 0d 00 3e 47 da ea 3d 33 c6 de 3d 7c 6c 19 3e
       0.12505278 0.11467414 0.10877647 0.1498279
000040 51 48 38 3e 73 2b 10 3e a1 ec e8 3d 59 61 31 3e
       0.17996337 0.14079075 0.113732584 0.17322291
000050 ed 8b 06 3e dd ee 0a 3e 68 72 2a 3e dc 2c 24 3e
       0.13139315 0.13567682 0.16645205 0.16032737
000060 d0 31 35 3e 9f 72 cc 3d 60 87 1a 3e fb cc bf 3d
       0.17694783 0.099828 0.15090704 0.09365269
000070 4a 36 e6 3d 9c 78 0e 3e af 67 b6 3d 27 ee 0b 3e
       0.112408236 0.13913196 0.08906495 0.13665067

encoder.3.weight f4 [64, 32, 3, 3]
000000 70 11 ed bc 8a c2 7c bd 06 cb 54 3d 04 35 56 3c
       -0.028938979 -0.061708964 0.05195143 0.013074163
000010 80 6d 27 3b 27 09 24 bc 74 30 77 3d 54 9e 77 3c
       0.0025547445 -0.010011948 0.060348943 0.015113432
000020 82 dc c9 3c 4f 81 bf bb cb 9e aa 3c be 15 9b 3c
       0.02464128 -0.005844272 0.020827672 0.018931266
000030 a4 c5 72 bd b4 cc 21 bc a6 ba 1f 3c 78 b4 d6 bc
       -0.059270516 -0.009875465 0.00974909 -0.026209101
000040 34 b6 1a bd 2f f2 30 3a 43 99 0f 3d 08 21 83 bd
       -0.03777142 0.00067499554 0.03505827 -0.064027846
000050 77 65 0e bd 05 09 50 bd 9f 90 4c 3d 9c 84 c5 3c
       -0.034764733 -0.05078985 0.04994261 0.024111085
000060 9e dc 98 bc b7 82 f3 bc 0e 6b 89 bc 90 16 7f bb
       -0.018659886 -0.029725416 -0.01677468 -0.003892336
000070 2b 1c 0f 3d bc d8 0f 3d 66 4f 60 bd 94 2f 89 3d
       0.034938972 0.035118803 -0.05476322 0.06698528
000080 45 f5 1a bb 83 d4 1f bc 43 8c ee 3c 86 c9 84 3c
       -0.0023644727 -0.009755257 0.029119616 0.016209375
000090 d5 d6 32 3c 7f 8a 71 ba 18 6b 4a bd 54 d3 cb 3a
       0.010915478 -0.0009214058 -0.04941854 0.0015550652
0000a0 0e 60 01 3d b4 72 b0 ba e3 04 6f 3d 64 95 a6 3b
       0.031585746 -0.0013461919 0.05835427 0.0050837267
0000b0 39 5f c0 3c 72 88 75 bc 72 a4 9e bd 96 64 9b bc
       0.023482906 -0.014986144 -0.07746209 -0.018968862
0000c0 b3 73 e0 bc a4 5e 43 3d cf c3 f6 3c 75 32 a7 3d
       -0.02739892 0.04769768 0.030122666 0.08163921
0000d0 28 fa 7c bc cc 76 a0 3c bf f2 5e 3c 4b 6e a1 3d
       -0.015440501 0.019587897 0.01360768 0.07882365
0000e0 cd 04 29 3d e0 35 88 bc 77 0f 0c bd 06 9e 3d 3d
       0.041264344 -0.016627252 -0.034194436 0.04629328
0000f0 5b d4 51 3d 9b bf 60 bc 56 79 9b ba 76 51 38 3d
       0.05122791 -0.013717557 -0.0011861722 0.044999562
000100 6a 4d b9 3d cf 1a 91 bd 4e 44 c3 3c 61 79 4c bc
       0.09047969 -0.070851915 0.023836281 -0.012480111
000110 a0 16 5d bc 9b c0 d0 bc e2 33 57 bc 9d 5c f9 3c
       -0.013494164 -0.025482466 -0.013134928 0.03043967
000120 8a 60 f9 3c fd ac 3d 3d ea 8a 94 bd 00 34 31 3c
       0.030441541 0.046307553 -0.07253058 0.01081562
000130 32 6d 7c 3d 6e 54 26 bd a2 2d 11 bb 50 75 33 3d
       0.061627574 -0.040607862 -0.0022152443 0.04381305
000140 69 76 c6 3b 96 8e 45 3c bc 4e 29 3d d5 af 72 3d
       0.006056596 0.012057921 0.041334853 0.059249718
000150 04 6b 43 bd 4f 08 5e 3d 35 02 87 3d 52 00 ab 3c
       -0.04770948 0.054207142 0.06592218 0.020874176
000160 f9 c0 21 bc 8d 94 0a bd 5c df 4e bd 39 d3 cf bc
       -0.009872668 -0.033833075 -0.05050598 -0.025369273
000170 aa cc 9a 3c aa a7 22 bd b9 b6 42 bd e6 11 78 3d
       0.01889642 -0.03971068 -0.04753754 0.060563944
000180 8a 8d 93 bc 9d f7 32 bd f1 6a 7f 3d 88 e1 1e bd
       -0.018011827 -0.043693174 0.062357847 -0.038789302
000190 40 6f 62 3d 33 59 0a 3d bb 88 72 bd 89 51 e7 bc
       0.055281878 0.033776473 -0.059212428 -0.028237121
0001a0 b8 02 04 3d f0 c8 fe bc 11 08 59 3c a9 84 94 bd
       0.032229155 -0.031101674 0.013246552 -0.072518654
0001b0 51 46 f7 bc 1a f6 0f 3d 72 24 02 3c 96 2b e1 bc
       -0.030184897 0.03514681 0.00794326 -0.027486604
0001c0 04 1e 16 bd 87 1c 36 3d 4a 8d 0b ba 4f 71 d6 bc
       -0.03664972 0.0444608 -0.0005323483 -0.026177077
0001d0 67 df da bc 08 e9 93 3b e7 1f 07 bc 7d a9 03 bd
       -0.026717855 0.0045138635 -0.008247352 -0.03214406
0001e0 fd f7 4e 3b 3f 82 2f bd e6 51 69 bd e7 99 18 3d
       0.0031580918 -0.04284882 -0.05696287 0.037256148
0001f0 2c fd 08 bd a8 4d 7a 3d cc b1 14 bd e0 d3 2b bd
       -0.03344457 0.061109215 -0.036302373 -0.041950107
000200 57 74 5a bd ba 17 f3 bc 05 54 93 bd 95 c0 82 3c
       -0.053333607 -0.0296744 -0.0719376 0.01596097
000210 5f ea 40 bd ef ca 50 bc de ed 64 bb e1 aa 2b 3d
       -0.047098514 -0.012743696 -0.003493182 0.04191101
000220 4e 6f 74 3b 57 17 e7 3c 7f ee 34 bc d5 56 bb 3c
       0.0037297788 0.028209371 -0.01104319 0.022868553
000230 70 b3 37 3d df d3 a4 3c 86 6d b0 3c 78 8a f8 3c
       0.04484886 0.02012056 0.0215366 0.030339465
000240 5d c4 25 3d 41 4f 24 3c ea d4 c0 3c bd f5 16 3d
       0.04047047 0.010028661 0.023539025 0.036855448
000250 b9 57 1d 3d 2d 3f 57 ba ff a6 7a bd 93 27 17 bd
       0.038413737 -0.0008211013 -0.061194416 -0.036902975
000260 ac d7 13 3d 09 14 22 3d 7a a8 12 3c 52 fa b5 3b
       0.036094353 0.03956989 0.008951301 0.005553522
000270 6a 58 64 bb 6d c6 a3 3d 19 af a3 bc 43 ef 26 bd
       -0.0034842738 0.07996831 -0.019980954 -0.04075552
000280 7a cf fd 3c fb dd 27 bd 92 8f 8a 3c 72 1c 79 3d
       0.030982722 -0.04098318 0.016914163 0.060818143
000290 98 73 f6 bc 60 1d ae ba e3 ad 97 3d 4d fc 6a 3c
       -0.030084416 -0.0013283901 0.07406213 0.01434238
0002a0 25 79 ca 3d df ab 4a 3c 5b a9 16 bd d8 2e 9e 3d
       0.09886388 0.012370079 -0.036782604 0.077237785
0002b0 f6 9a 84 3d 6a 51 1a 3d b3 b0 e8 bc b8 d0 0e 3d
       0.06474869 0.0376753 -0.02840457 0.03486702
0002c0 68 7b 3d bd 75 ee 3e bd e1 67 61 bd 40 1f 6b bd
       -0.046260267 -0.04661413 -0.055030707 -0.05740285
0002d0 ec 7a 65 bd 1e ca 22 3d 5c 2e 93 3c af af 3d 3c
       -0.05602543 0.039743535 0.017966442 0.011577531
0002e0 f9 ee 94 3d ba a6 c2 bc 4c f3 2e 3d 3a 0f 3b bc
       0.07272143 -0.023761142 0.042712495 -0.0114172045
0002f0 e1 19 0f bd ae e8 f1 39 fd 76 d9 3c 7a fa 3d bd
       -0.03493679 0.00046140462 0.026545996 -0.04638145
000300 dc af f8 bc 33 f6 0b bd a0 0f 4c 3d fa 77 13 bc
       -0.030357294 -0.03417034 0.04981959 -0.009000773
000310 f8 30 9b 3c 2d 79 93 3d 7e a6 61 3d a8 cc 3a bd
       0.018944249 0.07200847 0.05509042 -0.04560533
000320 fd b9 13 3c 34 16 f4 3c 22 48 a4 bd 8f 3e 1a bd
       0.009016511 0.029795744 -0.08021571 -0.037657317
000330 f0 dc 6d bd fc aa 24 3d 54 c3 f0 3c ec f4 30 3d
       -0.05807203 0.040202126 0.029390015 0.043202326
000340 63 42 44 bd 37 6f 99 3d f9 43 77 bc a6 85 b1 bc
       -0.047914874 0.07491916 -0.01509189 -0.021670174
000350 6f e9 8b bc b4 dc 35 3c 44 0d 00 bd cb 80 85 bc
       -0.017079083 0.011099983 -0.03126265 -0.016296765
000360 59 8c 50 3c 01 dd b6 3c 07 f1 d9 bc 4f 35 80 3d
       0.012728774 0.02232218 -0.026604189 0.06260168
000370 05 ae 96 3d d4 34 81 3d 81 2c 77 3c a6 f7 bf bb
       0.0735741 0.06308904 0.015086294 -0.0058583794
000380 01 dd 76 3d 34 c5 2e bd 5b 79 45 bd 9a 29 93 3d
       0.06026936 -0.042668536 -0.048211437 0.07185669
000390 c7 ce fd 3c 0b 93 01 bd a7 f6 bd 3b 17 9d de bc
       0.030982388 -0.03163437 0.0057972255 -0.027174516
0003a0 f1 b1 61 3c 59 d3 0e bd e6 43 2a 3c 1b 28 36 3c
       0.013775335 -0.034869526 0.010392165 0.01111796
0003b0 bd b0 6b bd 23 7b a2 bd 94 f9 4f bd c1 03 d9 3c
       -0.057541598 -0.07933643 -0.050775126 0.026491048
0003c0 ec 78 45 bd 34 cd 59 3c 18 fa af bd 60 77 58 bc
       -0.048211023 0.013293553 -0.085926235 -0.013212055
0003d0 06 04 91 bc 63 07 de bb 70 76 f2 bc 3e 4b 07 bd
       -0.017702114 -0.006775783 -0.029597491 -0.03303074
0003e0 fb b0 bd 3d 6f 15 74 3c 77 72 ab bc 4a 7a 8e 3c
       0.09262272 0.014897688 -0.020928605 0.017392296
0003f0 60 18 bd bb ef 09 02 bd 85 30 5d bd d8 08 01 bd
       -0.005770728 -0.031747755 -0.05400135 -0.031502575

encoder.3.bias f4 [64]
000000 4c 71 23 3c ce 8a ad 3b 6f 6b 28 bd e4 01 21 3d
       0.009975743 0.005296088 -0.04111808 0.039308444
000010 4d 5c 12 3d a9 e2 20 3c 8c 9e a7 3c 88 49 5e bd
       0.035732556 0.009819665 0.020461343 -0.054269344
000020 bb d9 5e 3d e5 c8 2e bd 71 e8 dc 3c 28 5e 5d bd
       0.054406863 -0.042672057 0.026966305 -0.054044873
000030 ee 1c 0b bd db bb b3 bc 84 dd 3d 3d e6 d6 da bc
       -0.033963136 -0.021940162 0.046353832 -0.0267138
000040 89 5e 4b 3a 68 17 0a 3d 8c 42 68 bd 7c 14 5a bd
       0.0007757922 0.03371373 -0.05670409 -0.05324219
000050 63 d3 38 bd 1d 38 3b 3c 03 e5 06 3d 0b fe a7 bc
       -0.04512347 0.011426953 0.032933246 -0.02050688
000060 48 c5 50 bd 71 6f 2e bc 60 cb 56 3c 7a 79 6c 3d
       -0.050969392 -0.010646687 0.013110012 0.057733037
000070 cd 52 64 3d 54 23 5b 3d 69 b5 9b 3c e6 a8 2f 3d
       0.055743027 0.05350049 0.019007402 0.042885683
000080 de 17 21 bd 3b 1a e1 bb 63 07 82 bc 91 2e cb 3b
       -0.039329402 -0.006869582 -0.015872663 0.0062006195
000090 e4 10 50 bc ce da 22 bd 08 66 33 3d 03 4b e1 3a
       -0.01269934 -0.03975945 0.043798476 0.0017188493
0000a0 19 1e a4 3c 21 49 1a 3c 79 24 d3 3b 6b 2c ea bc
       0.020033883 0.009416849 0.006443557 -0.028585633
0000b0 88 5d 58 bd 94 0e 53 3d ad 2e 1e bc 3e b0 15 bd
       -0.052823573 0.051527575 -0.009654683 -0.03654503
0000c0 35 c1 b3 3c 6d f2 a9 3c 92 ae 39 3c 6f 4c b1 bb
       0.021942714 0.02074548 0.011333125 -0.005410723
0000d0 2a 47 5f 3d e7 52 60 3d aa ad ad 3c bf 4f 5d bd
       0.054511227 0.05476656 0.021200974 -0.05403113
0000e0 29 b7 13 3c 33 40 53 bd 4a 19 27 bd 92 c8 6b bc
       0.009015837 -0.051574897 -0.040795602 -0.014391081
0000f0 d7 8c e3 bc 63 a9 fd 3c 53 e3 36 bd 9c 3b b2 bc
       -0.027777119 0.030964559 -0.044650387 -0.02175694

encoder.4.weight f4 [64]
000000 86 42 81 3f 61 00 80 3f 5c 2b 7f 3f 82 41 81 3f
       1.0098426 1.0000116 0.99675536 1.0098116
000010 f0 57 81 3f 9d 4d 7f 3f ee de 7b 3f cd 38 82 3f
       1.0104961 0.99727803 0.9838704 1.0173584
000020 f8 ee 82 3f 5b 9e 80 3f e7 7a 7a 3f 59 54 80 3f
       1.0229177 1.0048326 0.97843784 1.0025741
000030 be 10 81 3f 99 80 80 3f d4 c2 7c 3f 34 26 80 3f
       1.0083234 1.0039245 0.98734784 1.0011659
000040 f9 49 7f 3f 61 47 7e 3f 9e 3c 79 3f 8a 41 80 3f
       0.9972225 0.99327666 0.9735812 1.0020001
000050 b7 e0 7b 3f d9 79 7e 3f 76 87 80 3f 63 69 80 3f
       0.9838976 0.99404675 1.0041339 1.0032161
000060 49 c5 7d 3f b4 7d 80 3f cc 81 7e 3f 67 ad 7f 3f
       0.9912916 1.0038362 0.99416804 0.99873966
000070 41 59 80 3f 31 21 7d 3f c1 22 81 3f 4e 4f 7c 3f
       1.0027238 0.9887877 1.0088731 0.9855851
000080 a2 88 7e 3f 2e e3 7c 3f 8d 80 7b 3f a7 b3 7c 3f
       0.99427235 0.9878415 0.9824303 0.9871163
000090 9e d1 80 3f f7 13 7d 3f 18 ab 7f 3f 0a 34 82 3f
       1.006397 0.9885859 0.99870443 1.0172131
0000a0 cb 48 7e 3f 51 19 83 3f 64 a6 7f 3f 37 39 7f 3f
       0.99329823 1.0242101 0.99863267 0.9969668
0000b0 d3 2b 83 3f fd 3f 7c 3f 48 06 83 3f e0 3b 7d 3f
       1.0247749 0.9853514 1.0236292 0.98919487
0000c0 54 ce 7e 3f cd 18 81 3f 1c ed 7d 3f eb 55 81 3f
       0.9953358 1.0085694 0.99189925 1.0104345
0000d0 d5 4e 7f 3f de 00 7d 3f ce e6 7e 3f ae 72 7e 3f
       0.99729663 0.9882945 0.9957093 0.9939374
0000e0 92 db 80 3f 59 4a 81 3f 18 e1 80 3f c3 f3 7c 3f
       1.0067008 1.0100814 1.0068693 0.9880945
0000f0 b4 14 81 3f f5 8c 80 3f 94 76 7d 3f 73 26 7e 3f
       1.0084443 1.0043017 0.9900906 0.9927742

encoder.4.bias f4 [64]
000000 66 94 e7 bb f4 ad 88 bc c2 58 d5 bc 78 d1 b2 3b
       -0.007067251 -0.01668451 -0.0260433 0.0054570995
000010 e8 96 01 3d 50 79 24 bb d4 77 e9 bc 0d e1 97 bb
       0.031638056 -0.0025096722 -0.028499521 -0.0046349824
000020 8f 3b 96 3c 90 8f 2e bb 9d 04 c4 bc 8d 9e a8 ba
       0.018338947 -0.0026635863 -0.023927981 -0.0012864635
000030 ec 33 20 bc c8 0e 32 ba b6 de ca bc 11 bf 6a bc
       -0.009778004 -0.0006792364 -0.0247644 -0.01432778
000040 e0 59 16 3c 57 40 10 bc d0 6f c6 bc e2 70 a5 bb
       0.009176701 -0.008804402 -0.024223238 -0.005048857
000050 ac 0b 09 bd 03 85 cb bc af 1a 5d bb f6 49 ce 3b
       -0.033458397 -0.024843698 -0.0033737828 0.006295438
000060 ae 92 5a bc 06 03 90 bc be 1c 22 bc ed af 88 bc
       -0.013340635 -0.017579567 -0.009894548 -0.01668545
000070 73 ac 88 3b 4d ab d9 bb a7 0f 2c 3c 2c 3d 68 3b
       0.004170948 -0.006642735 0.010501779 0.0035436852
000080 eb c8 81 bc 7a 73 85 bc 6b 1e cd bc e6 77 ba bc
       -0.015842875 -0.016290415 -0.025038918 -0.02276225
000090 e6 43 a4 bc 56 d2 46 bc 33 63 84 3b 00 7c 5b 3c
       -0.020051908 -0.012135109 0.004040146 0.013396263
0000a0 2d c5 94 bc cb fe b5 3c b0 85 82 bc 66 12 3d bc
       -0.018160427 0.022216221 -0.015932888 -0.011540031
0000b0 16 c2 14 3c 7a 9d 0b bd ec d5 bf 3a e8 30 98 bc
       0.009079477 -0.03408573 0.0014635897 -0.018578008
0000c0 9f f4 ce bb 3e 59 41 bb ef 76 1d bc b9 fd 54 3b
       -0.006315782 -0.0029502655 -0.0096108755 0.0032499863
0000d0 d5 4b 20 3a fd 9f 54 bc 9b 23 83 bc 81 79 03 bc
       0.00061148155 -0.012977597 -0.016008189 -0.008024574
0000e0 c1 0f 60 bc 65 ba 2b bc cd 7f ab bc a2 7b dc bc
       -0.013675631 -0.010481452 -0.020934964 -0.026914421
0000f0 64 fb 44 3a 5e c5 4d bc f7 88 d3 bb 0c d5 4c bc
       0.0007514267 -0.012559263 -0.0064555365 -0.012501966

encoder.4.running_mean f4 [64]
000000 8b 23 2f 3d 16 36 06 3e 22 b7 e6 bd ad 86 ff bd
       0.042758506 0.1310657 -0.112653986 -0.12476859
000010 02 bf b4 bd 1a 38 2f be b4 4c c5 bc 3f 4a c5 be
       -0.08825494 -0.17111245 -0.024084426 -0.38533208
000020 7d b3 3d bd 07 4b 07 be 65 76 43 3e 3b 34 1d be
       -0.04631375 -0.13212214 0.19088133 -0.15351956
000030 8c 0c 55 be 91 a4 2a bd e6 32 02 be 62 fd 38 be
       -0.20805568 -0.04166085 -0.12714729 -0.18065408
000040 0d f5 03 be 1a 58 0a be bb c3 4b 3d 7a 63 1e 3d
       -0.12886448 -0.1351017 0.04974721 0.038669087
000050 9e 56 8a be 50 4d fb bd c6 cc 83 be 60 12 9a be
       -0.2701921 -0.122706056 -0.25742167 -0.30092144
000060 eb a7 b6 be 7e a1 37 bd d7 84 94 bd af 8b 59 be
       -0.35674986 -0.044831745 -0.072519 -0.21244691
000070 51 34 18 be cc 81 7b be 16 50 45 bd 31 54 9f bd
       -0.14863707 -0.24561232 -0.04817208 -0.0777973
000080 4f 41 73 bc 12 6e bd 3d 0f 0b 40 be ff ae 99 3c
       -0.014847114 0.0924951 -0.18754219 0.018760202
000090 12 f6 4c bd 20 bd ff ba 40 ad 66 be 5c 64 1d be
       -0.05003936 -0.001951132 -0.22527027 -0.15370315
0000a0 f9 77 36 bd 02 bc 4f be b3 4a a0 3d 73 c8 97 bd
       -0.04454801 -0.20286563 0.07826748 -0.074112795
0000b0 26 89 3e bc 78 be 6b 3e 74 3d a0 3d 81 f6 c5 3d
       -0.011629378 0.23021877 0.07824221 0.096661575
0000c0 3f ff ee bd 05 79 8b 3c 7d d0 cb be b3 4d d5 3c
       -0.11669778 0.01702548 -0.398075 0.026038026
0000d0 92 f6 3a bd 3e ff 17 be e8 2b 27 bd 42 66 54 bd
       -0.045645304 -0.14843461 -0.040813357 -0.051855333
0000e0 c1 77 99 be 79 56 6c bd 2c 1a 78 3e 3f b8 27 3e
       -0.29974177 -0.057699654 0.24228734 0.16378878
0000f0 83 81 dd 3c 04 98 77 3e b5 a4 d6 be 9b 3e 21 3e
       0.027039295 0.24179083 -0.41922536 0.15746538

encoder.4.running_var f4 [64]
000000 7b fb 19 3e b7 4a c9 3d 5f 54 3d 3e 16 4c 4e 3e
       0.15037338 0.09828704 0.18489216 0.20146212
000010 f3 01 8f 3e ad a6 68 3e 9a 45 31 3e 14 ee 46 3e
       0.27931175 0.22719832 0.17311707 0.19426757
000020 8f 25 27 3e 3f 19 3c 3e 2a 35 33 3e 83 18 04 3e
       0.16322921 0.18369006 0.17500749 0.12899975
000030 27 d5 24 3e 26 d4 38 3e 66 23 65 3e bb 8b 5c 3e
       0.16096936 0.18049678 0.22376785 0.21537678
000040 ee 77 1a 3e 60 16 43 3e 65 b6 50 3e b7 34 1a 3e
       0.15084812 0.19051504 0.20382078 0.15059172
000050 38 1b 14 3e 08 72 32 3e 2a 59 52 3e 66 92 84 3e
       0.14463508 0.17426312 0.20541826 0.25892943
000060 a8 fa 54 3e 95 f9 0d 3e 14 ef 2b 3e 9e da 36 3e
       0.20798743 0.13864739 0.1679042 0.17856833
000070 db 7d 6b 3e 7c 89 69 3e cc 2a 3c 3e 5e b5 0c 3e
       0.22997229 0.22806352 0.183757 0.13741061
000080 64 0c 0a 3e bc 9e 0e 3e 65 d1 5f 3e 20 8d 7a 3e
       0.13481289 0.1392774 0.21857221 0.24467897
000090 8e ae 11 3e 44 7c 77 3e 97 9d 38 3e e9 14 06 3e
       0.14226744 0.24168497 0.18028866 0.13093914
0000a0 08 bc 33 3e 7b 43 60 3e 84 56 1a 3e a5 c8 9a 3e
       0.17552197 0.21900742 0.15072066 0.30231205
0000b0 26 d4 10 3e 5e 2c 25 3e 0b 4b 3b 3e 14 c7 43 3e
       0.14143428 0.16130206 0.18290345 0.19118911
0000c0 2e 14 1c 3e a5 08 0d 3e c9 01 2b 3e 78 d3 33 3e
       0.15242073 0.13772829 0.166999 0.17561138
0000d0 eb d4 74 3e 4d 51 1c 3e 63 8a 4f 3e 72 e2 2f 3e
       0.23909347 0.15265389 0.20267634 0.17176226
0000e0 23 cb 29 3e 7c fe 55 3e 6c e1 05 3e 19 2b 0b 3e
       0.16581397 0.2089786 0.13074273 0.13590659
0000f0 51 7b 0c 3e 21 89 2c 3e b9 3d 8d 3e cd 7d 46 3e
       0.13718916 0.16849186 0.27586153 0.19383927

decoder.0.weight f4 [64, 32, 2, 2]
000000 2a e9 38 3d 24 b8 e8 bc 8b 63 14 3d 3b 22 93 bd
       0.045144238 -0.028408118 0.036227744 -0.07184263
000010 e3 6d 0b 3c e3 5c 43 3d 34 9e 5a bb de d0 31 bd
       0.008510086 0.047696006 -0.0033358457 -0.043412082
000020 4f 34 a0 3c b1 12 78 3d 73 e4 d9 bc 53 c8 f6 3d
       0.019556193 0.0605647 -0.02659819 0.120499276
000030 c8 57 3d bd 1a 2f cb 3b 5b 9d c2 bb f3 59 4c 3d
       -0.046226293 0.0062006833 -0.0059391684 0.04989047
000040 b1 8a 86 3d 36 c5 0e bd 26 23 82 bd b7 02 94 3d
       0.06569422 -0.034856044 -0.0635436 0.0722708
000050 58 79 94 bd aa b8 8c bc c4 50 af bc d7 2d 04 bd
       -0.07249707 -0.017177898 -0.021400817 -0.03227028
000060 50 19 10 bd df 60 80 bb 43 ad d7 bd d8 da 16 3d
       -0.03518039 -0.003917798 -0.10531094 0.0368298
000070 52 34 a9 bd ed 69 fd bc 86 e1 93 bc a8 26 4e 3b
       -0.082619324 -0.030934298 -0.018051874 0.0031456146
000080 e0 c3 9e 3d 63 f7 79 bd 9a 8d b0 3c 3c 89 44 3c
       0.07752204 -0.061026942 0.021551896 0.01199561
000090 cf 1c cb bd ab ec 1f 3c 0c 75 a6 ba f8 a1 85 3d
       -0.09917604 0.009761016 -0.0012699678 0.06525034
0000a0 73 1c db 3d 21 fe b4 3c 82 07 a2 3d 7e ae 80 bc
       0.10698786 0.022093834 0.07911588 -0.015708204
0000b0 42 72 f0 bd 2c a0 6b 3d 48 8a c5 bd bf e4 7d 3a
       -0.11740543 0.0575258 -0.09645516 0.000968527
0000c0 fd 7f b3 3b 76 75 11 bd 20 9e 43 bd bb 15 81 3d
       0.005477904 -0.03551241 -0.04775822 0.06302973
0000d0 b6 a3 12 3d 89 11 02 bc e8 57 2f 3d e5 bf 46 bc
       0.03580066 -0.007938751 0.042808443 -0.012130712
0000e0 bf 65 08 be 24 08 53 3d 35 e8 1c bd c6 11 3e 3d
       -0.13320063 0.051521435 -0.038307387 0.04640367
0000f0 ae 97 1b 3d de 86 81 3d fa f3 24 bd 5e 69 16 bc
       0.03798645 0.06324552 -0.040271737 -0.009180395
000100 07 ab e2 bc dc 52 25 bd 87 68 8b 3c ec fa 84 3d
       -0.027669443 -0.040362224 0.017017616 0.06493172
000110 ac a1 34 bd 13 9f 48 bd c5 ca 00 be 83 4d 7c 3d
       -0.044099495 -0.04897983 -0.1257735 0.06159736
000120 31 6a d9 3c ed b5 d1 3d ca 3a 30 bd 3d 8b 09 3b
       0.026539894 0.10239778 -0.043024816 0.0020987533
000130 66 a6 53 bd 41 88 17 3d ae e9 00 3d 0e 32 51 3c
       -0.05167236 0.036995176 0.031472854 0.012768282
000140 9d 34 81 bd 98 81 bc 3d 1b 74 99 3d 63 2f 78 bd
       -0.06308863 0.092044055 0.074928485 -0.060592066
000150 b9 2f 59 3d 21 b0 6f 3d 81 04 5f 3c 78 23 c6 3c
       0.053024027 0.05851758 0.013611914 0.024186835
000160 55 ed c9 bb 99 de 71 bd 6c 60 0f 3c 23 51 9f 3c
       -0.0061623254 -0.059050176 0.008751016 0.019447869
000170 67 f0 8e 3c 10 20 11 bd 81 48 b6 3d e2 e2 2f 3d
       0.017448617 -0.035430968 0.08900548 0.04294098
000180 24 9a 5c bd e5 0b 63 bd bb f5 fb bc 1b 00 ae 3d
       -0.053857937 -0.055431265 -0.030756822 0.08496114
000190 c1 8a 05 bd dd 3a f3 bc b9 56 9f bd 4e 86 45 bd
       -0.03260303 -0.029691154 -0.07780213 -0.048223786
0001a0 a2 cb cd bd 8e 67 39 3b b8 70 6d 3c f5 8d f7 3c
       -0.100486055 0.0028290483 0.014492206 0.030219058
0001b0 c1 c6 e7 3c ec 62 05 3e 8d 35 3b bd c9 ec 93 3d
       0.028293015 0.13026017 -0.045705367 0.072228976
0001c0 2f 80 07 3d 55 38 e2 3b 9c 75 8f bd aa 8f 32 3d
       0.03308123 0.006903688 -0.07004854 0.04359404
0001d0 f1 9a b4 3d 46 cb d0 3d 19 62 b5 3d 5d df 9f 3d
       0.08818615 0.10195021 0.08856601 0.07806275
0001e0 3a 2a 6c 3c 3c 72 18 bb 55 2c 1d bd 82 b7 d3 bd
       0.0144143645 -0.0023261448 -0.038372356 -0.10337736
0001f0 e7 31 25 bd 9a 4f 8e bc 2e cf a9 bc 12 67 25 bc
       -0.040330794 -0.017371941 -0.020728674 -0.010095375
000200 a8 5d 09 3c 78 14 9b bd 35 23 b8 3d e9 3d bf bd
       0.008384146 -0.075722635 0.0899109 -0.0933798
000210 ab 71 08 3d 24 3f f0 3c a4 7a aa bd 88 96 6d bd
       0.033311527 0.029326983 -0.08324173 -0.058004886
000220 ad 0a 8e 3c a9 b4 62 3c 55 b2 d1 bc 76 11 66 3d
       0.017339075 0.013837018 -0.02559773 0.056168996
000230 18 ad 72 3d 9a c5 b1 bc 73 05 bd 3c 5a 6b 4f bd
       0.059247106 -0.02170067 0.023073887 -0.050639488
000240 5b f6 88 3c 04 53 9e bd 45 b1 3c 3d 51 02 95 bd
       0.016719034 -0.07730678 0.046067495 -0.072758324
000250 ba 4f 8a 3d c9 0f a9 3c 5f 4c ca bd 94 3a 3d 3d
       0.06753488 0.02063741 -0.09877848 0.046198443
000260 7a fc e6 bd 2d 07 27 bd dc 40 ca 3d 59 90 99 bd
       -0.11278625 -0.040778328 0.09875652 -0.07498235
000270 92 72 c4 3d 21 84 9b bc df fd c9 ba 59 a5 47 3d
       0.09592165 -0.018983902 -0.0015410742 0.048741672
000280 35 12 72 bd ea b5 b4 bc 63 93 0d 3e 2e 67 21 3c
       -0.059099395 -0.0220594 0.13825755 0.00985126
000290 31 61 a5 3d 9f 38 29 3d 46 40 52 3c bd 46 80 3d
       0.080751784 0.041313764 0.012832707 0.06263492
0002a0 42 9c 63 bc 94 a7 0d bb 26 ca 9c 3d 43 b2 2a 3d
       -0.013892235 -0.0021614777 0.07655744 0.04167391
0002b0 89 4d a1 3d 92 99 2e 3d 16 32 3e 3a 1f a5 29 bd
       0.07876117 0.042626925 0.0007255388 -0.041417237
0002c0 62 14 a6 3d 9a 72 68 bd 06 e2 60 3d d4 8a 42 3c
       0.081093565 -0.056749918 0.054903053 0.0118739195
0002d0 9f e8 1d 3d 2a 82 46 3d 68 94 e3 3c af 42 3f 3d
       0.038551923 0.048463978 0.027780727 0.046694454
0002e0 fa 51 86 3d dd f9 68 3d 6b 5e de 3b eb 70 c7 bc
       0.065586045 0.056878913 0.006786158 -0.024345836
0002f0 9c 36 6a 3d 8b 72 a6 bd b1 84 51 3d 7d 26 22 bd
       0.057180986 -0.08127316 0.051151935 -0.039587487
000300 30 c3 a6 3d 5c c5 8a 3b 89 28 a3 bd 7e 11 38 bd
       0.08142698 0.004234953 -0.07966716 -0.044938557
000310 12 05 e2 bc 06 29 c4 3c 13 2a 12 bd 22 28 74 bd
       -0.027590308 0.023945343 -0.035684656 -0.059608586
000320 f3 69 b3 bc 19 d3 6f bd f6 62 4c bd f0 e0 8e bd
       -0.021901106 -0.058550928 -0.049899064 -0.06976497
000330 cc fe c8 bd 40 b5 94 bd de c2 3b bd 1b 88 b5 3d
       -0.09814224 -0.07261133 -0.045840137 0.08863851
000340 60 1b 49 bd a5 cb 22 3b 09 13 70 bc c9 87 37 bd
       -0.049098372 0.002484062 -0.014652976 -0.04480723
000350 68 88 21 3d 62 08 46 bd 83 d8 0b 3d 61 65 b1 3d
       0.039436728 -0.04834784 0.03414203 0.086619146
000360 b6 cd a3 bc 5b a2 8b bd 3f 78 e0 bc 05 fb 3a bd
       -0.019995552 -0.06818076 -0.027401088 -0.045649547
000370 a8 08 4d bd 9f 26 28 bd ae a8 73 bd 1a f8 6c 3d
       -0.050057083 -0.041052457 -0.059487037 0.057853796
000380 99 7b 0d 3d 74 4b 00 3d c7 d9 86 3c dd df 2a 3c
       0.0345417 0.031321958 0.016461266 0.01042935
000390 c6 d4 86 bd 07 12 74 3d 0b bd 8a bd fc 85 19 3c
       -0.06583552 0.059587505 -0.06774338 0.009370323
0003a0 d1 07 9a 3c 73 70 62 3c 15 85 f4 3c b3 6e 30 bd
       0.018802555 0.013820755 0.029848615 -0.04307432
0003b0 42 7f 34 bd 95 75 2f 3d f3 86 c6 bc 23 a1 ba 3c
       -0.044066675 0.042836744 -0.02423427 0.022781914
0003c0 83 bf 76 3d 00 b6 b6 3c 1b 77 84 3d f8 f5 1c bb
       0.060241234 0.022303581 0.0646803 -0.002395032
0003d0 e8 a9 48 bd 12 81 a8 3d 3e cb 9b 3d 46 77 e3 bc
       -0.04899016 0.08227743 0.07607125 -0.027766835
0003e0 12 fb 81 bb 1e 7a 37 3d 5b 83 82 3d d5 6b 5e 3c
       -0.0039666975 0.044794194 0.0637271 0.013575514
0003f0 cc d1 9d bd 6c 28 bb 3c 38 ab 19 3d 4b 13 a1 bd
       -0.07706031 0.022846423 0.037516803 -0.07865008

decoder.0.bias f4 [32]
000000 47 99 63 3d 87 b1 f1 3c 74 b9 60 3d 1d 74 9b bd
       0.0555661 0.029503597 0.054864362 -0.07590506
000010 8b b1 27 3d b7 b1 58 3d 6e ff bd 3c 61 c9 ac 3d
       0.040940803 0.052903857 0.023193087 0.084368475
000020 1b f7 8c 3d c3 54 98 3c 60 8d a2 3d b0 97 65 bd
       0.06883069 0.018595105 0.079371214 -0.056052864
000030 e8 2a c7 3b cb 98 81 3d ad f9 6f bd 36 63 c7 3c
       0.006078113 0.06327971 -0.05858772 0.0243393
000040 f3 11 72 3d b0 72 a6 3d f4 d9 6c bc 88 98 81 3c
       0.05909915 0.08127344 -0.014456261 0.015819803
000050 52 22 94 bd 73 21 79 bd c1 cc 84 bd 9e b6 65 3d
       -0.072331086 -0.060822915 -0.06484366 0.05608236
000060 5b 04 aa 3d b4 d5 a4 bd cb 80 71 3d 3c 67 bd bc
       0.08301612 -0.08048573 0.058960717 -0.023120515
000070 bc fc 9a bc 59 72 3c bd b2 47 67 bc d2 4b 9e bd
       -0.018919341 -0.046007488 -0.014116215 -0.07729305

decoder.1.weight f4 [32]
000000 40 a2 7e 3f 65 a3 7f 3f 89 16 82 3f 30 ab 7f 3f
       0.99466324 0.99858695 1.0163127 0.99870586
000010 18 31 81 3f 5e 6a 7a 3f b6 a0 79 3f a8 9f 7f 3f
       1.0093107 0.97818553 0.9751085 0.9985299
000020 9b f4 79 3f 67 fb 7c 3f 7f 99 80 3f 93 bf 81 3f
       0.97638863 0.9882111 1.0046843 1.0136589
000030 dc 21 80 3f 78 b1 7f 3f 39 f6 80 3f d8 8d 7f 3f
       1.0010333 0.9988017 1.0075141 0.9982581
000040 20 62 81 3f 49 01 7f 3f de 6e 79 3f 43 cc 7a 3f
       1.010807 0.99611336 0.97434795 0.9796793
000050 ea a8 80 3f de 93 82 3f b4 b0 7b 3f 40 4e 7d 3f
       1.0051548 1.0201375 0.983165 0.98947525
000060 2f 7e 81 3f 8a e2 81 3f cb 19 82 3f b8 44 81 3f
       1.0116633 1.0147259 1.0164121 1.0099096
000070 f7 71 78 3f a0 d3 81 3f 41 f4 7a 3f 0a 13 83 3f
       0.97048897 1.0142708 0.9802895 1.0240185

decoder.1.bias f4 [32]
000000 0b eb 0d 3b a5 c5 ae 3c 14 3f 9f bc 2a 7f 07 3b
       0.002165499 0.021334479 -0.019439258 0.002067516
000010 e7 94 e9 3c ba 72 03 3d 55 91 df bc 50 43 9b ba
       0.028513385 0.032091834 -0.02729098 -0.0011845622
000020 fe 3a d7 bc c9 ca ef bb 94 a7 d6 3a 99 fb 97 3c
       -0.026273247 -0.007317875 0.0016376846 0.018552588
000030 d4 13 e4 bb e1 02 6f 3c 28 85 a4 bb 95 b6 01 bc
       -0.0069603715 0.014588089 -0.0050207563 -0.007917066
000040 a4 ad 7a 3c 37 c7 18 ba d0 79 f0 bc 27 51 a0 bc
       0.015300188 -0.0005828025 -0.02935496 -0.019569946
000050 5b 13 69 bb ec bb ce 3c 21 9f c6 bc 45 19 85 bc
       -0.0035564515 0.025236093 -0.0242458 -0.016247401
000060 46 f0 45 3c 2f 4b 5f 3c f8 3c 24 3d 20 b6 a3 3b
       0.012081211 0.013628765 0.040097207 0.004996076
000070 a5 e7 27 3c d3 50 af 3c d3 cf d1 b8 01 c9 2d 3d
       0.010248099 0.021400845 -0.00010004607 0.04242802

decoder.1.running_mean f4 [32]
000000 24 93 98 be 75 5d 87 bd 6a a7 da 3e 7e 82 fa bd
       -0.2979976 -0.066096224 0.42705852 -0.12231921
000010 c5 32 0c bd 31 22 8d be 1f 35 49 bd 3b 66 75 3e
       -0.034228105 -0.27565148 -0.049122926 0.23964779
000020 ec c7 14 be 29 94 54 bd 33 7d db 3d 44 76 c8 bd
       -0.14529389 -0.05189911 0.10717239 -0.097881824
000030 89 22 4c 3e 83 32 39 3d 95 af a8 3e 83 09 0b 3d
       0.19935049 0.045214187 0.32946458 0.033944618
000040 63 a6 3f bd fd bb bd 3e 00 b8 28 be 85 8e d5 be
       -0.046789538 0.37057486 -0.1647644 -0.41710296
000050 4e 73 0d be 98 ea 9e 3d c6 06 ef bd 69 f5 64 3d
       -0.13813516 0.07759589 -0.11671214 0.055898104
000060 c9 2b d7 3d 20 d3 9d be 78 48 cf 3d 0b 2c 94 be
       0.10506398 -0.30825138 0.10121244 -0.28939852
000070 5a fb e1 3d 90 21 82 3e a6 b0 81 3e a5 11 66 be
       0.1103427 0.2541623 0.25330085 -0.22467668

decoder.1.running_var f4 [32]
000000 3e 81 6f 3f 0d 0a c2 3e b8 d3 ca 3e 20 e6 6b 3f
       0.9355658 0.37898293 0.39614654 0.9214802
000010 bb 1c a1 3e 52 9b 8e 3e 64 02 b5 3e f3 ad c8 3e
       0.31467232 0.27852875 0.35353386 0.39195213
000020 4f 84 8e 3f a9 5e cd 3e 75 72 ba 3e 15 2e 1d 3f
       1.1134127 0.40111282 0.3641545 0.6139844
000030 29 51 cf 3e 0c 36 f5 3e 17 d4 d0 3e ba 9f 13 3f
       0.40491608 0.47892797 0.40786812 0.576656
000040 41 ce da 3e 0c 81 cb 3e 95 5c 38 3f 2b 19 10 3f
       0.42735484 0.39746892 0.7201627 0.56288403
000050 53 22 09 3f 18 df 02 3f 79 4b bc 3e 95 1e 0c 3f
       0.53568 0.51121664 0.3677633 0.54734164
000060 56 5a 9d 3e a1 86 f9 3e cc ec b1 3e f1 fe c9 3e
       0.30732983 0.48735526 0.34750974 0.39452317
000070 79 3a 94 3e 00 ee a0 3e 8a ab 2a 3f b2 7d c4 3e
       0.2895086 0.3143158 0.66668 0.38377148

decoder.3.weight f4 [16, 32, 3, 3]
000000 3a 28 5c bc f3 08 a6 3b b2 8e ae 3b 1c 63 81 bc
       -0.013437325 0.005066985 0.005327069 -0.01579433
000010 a5 46 0f 3d 68 95 86 3c f8 b2 ac 3c ac b5 34 3d
       0.03497948 0.016428664 0.021081433 0.04411857
000020 cb c5 28 bd 64 b5 94 bc 8a 9c 74 3c 0a 3d 6a bc
       -0.041204255 -0.0181529 0.0149299 -0.014296779
000030 a2 6a 93 bc c0 dd 67 bd be dd 40 bd 96 02 a2 3c
       -0.017995182 -0.05660796 -0.04708647 0.019776624
000040 0a 92 4a bd f5 1a 9b 3c 98 0b 1c bd 19 a0 fb 3c
       -0.04945568 0.018933753 -0.038096994 0.030715989
000050 c1 63 20 bd 66 40 a8 3d 34 78 6a 3c c1 c4 46 3c
       -0.039157633 0.08215408 0.014310885 0.012131871
000060 53 4e 5f 3d c0 16 8f bd 8f d4 01 3d 27 28 5b bc
       0.054518055 -0.06986761 0.031696852 -0.013376272
000070 cb 7d cd bc 3e d3 e8 3c 34 27 ee ba 93 0e 7b 3d
       -0.025084397 0.02842104 -0.0018169642 0.061293196
000080 39 ec 30 bd 93 29 31 3d e9 f5 db 3c bc 0e 69 3c
       -0.04319403 0.04325254 0.026850658 0.014224704
000090 4d be 13 3d cc 24 bf 3c 0c 70 22 3d f9 a5 a5 3c
       0.036070157 0.023332976 0.039657637 0.020220743
0000a0 af aa 57 bd cf 42 12 bd e4 6d ed 3c 8a cc 92 3c
       -0.05265301 -0.035708245 0.028983064 0.017919797
0000b0 8b 97 0d bd 17 e6 b1 bc ec 5f 2c ba f6 df 49 bd
       -0.03456835 -0.02171616 -0.0006575573 -0.04928585
0000c0 23 b0 32 3d ee ca 31 3d c7 3f 27 bc ce 0d 27 bb
       0.04362501 0.04340642 -0.010208077 -0.0025490406
0000d0 d7 3d 1b 3d 40 db 35 bd fd 60 8f 3d 0c 2c bf 3b
       0.037900772 -0.044398546 0.07000921 0.005834108
0000e0 c6 dc 4d 3d ba 34 83 3d 10 23 8b 3c ed a6 fd 3c
       0.050259374 0.06406541 0.016984493 0.030963385
0000f0 08 e8 0c 3c 4c fc 87 bd 3a bb 40 bc ef 8c 5d 3d
       0.008600242 -0.06639919 -0.011763388 0.054089483
000100 78 69 9e bd f9 80 ce bb 34 c2 63 3d 37 78 9d 3c
       -0.0773496 -0.006301996 0.05560513 0.019222362
000110 8b c7 20 3d 8a a2 96 bc 0c 2b 5f bd 22 4e b8 bc
       0.0392528 -0.018388052 -0.054484412 -0.022498194
000120 84 a8 fa bc 57 25 52 3d ab 7a 22 3d 65 3e 2d 3c
       -0.030597933 0.05130514 0.039667767 0.010573958
000130 32 7b 70 3b e9 58 26 bb a2 5d 83 3c 97 51 0a bd
       0.0036694524 -0.0025382584 0.016035859 -0.033769216
000140 96 d3 aa b9 85 97 08 bd cf c7 38 3c b5 10 65 bd
       -0.0003258257 -0.033347625 0.011278107 -0.055924136
000150 0a 58 45 3c 41 9c 96 bb 21 06 6e bd f7 c0 25 3b
       0.012044916 -0.0045962636 -0.058111314 0.0025292018
000160 45 a9 98 3d a1 c7 ce bc 25 88 01 3d 76 3b 9e bb
       0.074541606 -0.025241675 0.03162398 -0.0048288656
000170 20 80 eb 3c 64 90 68 3c ee a6 74 3c dc 24 a9 3c
       0.028747618 0.014194582 0.014932377 0.020647459
000180 c5 86 8d bd c1 8a 42 3d 2a d1 21 bd 26 66 8d ba
       -0.06910471 0.047495607 -0.039506115 -0.0010787889
000190 f0 1f 27 3d 7d 1c bf bc 0e 62 7d bc 27 cc bd 3c
       0.040801942 -0.023329014 -0.015465273 0.023168636
0001a0 70 b1 60 bd aa a8 a7 3d 37 8f 18 3c dd 0b 87 3c
       -0.054856718 0.08186467 0.009311489 0.016485149
0001b0 70 0d 09 3c f3 7f 64 3c ff fa 55 bd 2b 3e 9c bd
       0.00836502 0.013946521 -0.05224132 -0.07629045
0001c0 c1 6e de 3c de 56 06 3c b4 80 78 3d 1c 16 2f bd
       0.027152421 0.008199422 0.060669616 -0.042745695
0001d0 5c 84 fa 3b 33 4c 1f 3d f4 50 a2 3d e1 08 74 bc
       0.007645173 0.03889103 0.07925597 -0.014894695
0001e0 7a 45 99 bc e0 01 f1 3a 4f 1f eb bc 9a 54 cc bc
       -0.018709887 0.00183874 -0.028701453 -0.024942685
0001f0 5e ae 89 bd e7 5b 5d bc 60 a3 9e 3d c6 5e 71 3d
       -0.06722711 -0.013510681 0.07746005 0.058928274
000200 0c 50 a1 bd 98 2a 66 3c fa 82 c0 bc 27 36 18 3d
       -0.07876596 0.014048241 -0.023499954 0.03716102
000210 e0 71 9f bd 61 00 00 3c 5e c3 84 bc 47 ed ee 3c
       -0.07785392 0.00781259 -0.01620644 0.029165877
000220 f6 3f 56 bd 9d 20 81 b9 33 c7 47 bd 65 54 34 bd
       -0.05230709 -0.00024629096 -0.048773956 -0.044025797
000230 2d 03 6e 3d ab e1 7e 3d 02 96 d7 bc 2a 1b dc bc
       0.058108497 0.062226932 -0.026316646 -0.026868422
000240 4e b5 b8 bc ba 6e 2d bd 9e 0c 92 3c fa 8d 25 3d
       -0.02254739 -0.042341925 0.017828282 0.040418603
000250 1f 38 a2 bd ba 48 9c bd 16 7d 83 3d c6 e7 17 bc
       -0.079208605 -0.07631059 0.064203426 -0.009271568
000260 ca 68 14 bd 68 e4 ba 3a 22 b8 62 bd cb 6d a6 bc
       -0.036232747 0.0014258744 -0.055351384 -0.020316025
000270 ce 2d 6e bd 67 20 60 3d 7c 69 80 bd 65 c3 fc 3c
       -0.05814915 0.0547184 -0.062701195 0.03085489
000280 cb 10 2a 3c e4 1a 5f bd cd f2 a3 3d 4e 65 55 bd
       0.01037998 -0.054469004 0.08005295 -0.052098565
000290 aa 9c fd 3b c1 7f ed 3c d9 ad 0c 3d 3f 55 6e bc
       0.007739623 0.028991582 0.03434548 -0.014546691
0002a0 71 44 dd bb 74 47 24 bd cd b5 8d 3c 2e e8 1e b8
       -0.0067525436 -0.040107206 0.017298603 -3.788637e-05
0002b0 20 9a f0 3a 58 f1 03 bd 8d 53 25 3c b2 40 d6 3b
       0.001835648 -0.032212585 0.010090721 0.006538474
0002c0 8b f4 86 3c 8b d4 67 3a de 48 b3 bb 9f 22 0d 3d
       0.016474029 0.0008843622 -0.005471333 0.034456845
0002d0 de d0 58 3b af 9b 81 bd 02 62 09 bc e6 6c c8 bc
       0.003308348 -0.063285224 -0.008385183 -0.02446599
0002e0 40 97 62 bd c7 21 9c bd c4 d5 71 3d 51 5d ce bc
       -0.055320024 -0.0762363 0.059041753 -0.025190981
0002f0 9e e2 89 bd a4 85 ca bc 9c e6 ae 3c ba a5 7a bc
       -0.06732677 -0.024721928 0.021350197 -0.015298301
000300 4b 21 dc 3c da 4b c9 3c e3 56 14 bd 17 21 50 3d
       0.026871344 0.024572302 -0.036215674 0.050812807
000310 0f 61 28 bd b3 86 14 bc 19 6d 49 3d a3 8f b8 bc
       -0.041108187 -0.009065318 0.04917631 -0.022529429
000320 8a fa 50 3b ee 55 1d 3d 8b 38 f5 3c 1f e1 62 3c
       0.0031887614 0.038412027 0.029934188 0.013847618
000330 5d c0 69 3c c5 cf 39 3d 65 7e fc bc b4 55 1a 3c
       0.014267054 0.04536416 -0.030821988 0.009419847
000340 9b 2c 97 bd e5 df 45 bd 31 b1 0a bd a9 b9 24 3d
       -0.07381555 -0.048309226 -0.03386039 0.04021612
000350 98 c8 d8 bb 23 c5 15 bc 3a 10 49 bc f3 db 22 bd
       -0.0066157095 -0.009141239 -0.012271935 -0.03976054
000360 69 71 30 3d 95 5b 2c bd c0 ab 2a bc e3 c3 2f 3d
       0.043076906 -0.042079527 -0.010416925 0.04291142
000370 1d aa b2 3b 97 56 16 bd 08 7e 05 bd be 4a 42 3d
       0.005452408 -0.036703672 -0.032590896 0.04743456
000380 df b9 20 3c be a8 b2 3d db dd 3d 3c 4f b5 42 3d
       0.00980994 0.08723591 0.011588539 0.04753619
000390 f6 fb 7b 3d 8f 3f 10 3d f9 8a b4 bc 94 48 66 3c
       0.061519586 0.035216864 -0.022038924 0.01405539
0003a0 62 6b ec bc 24 8a d8 3b dd a9 34 bd d2 3c fe 3b
       -0.028859798 0.0066082645 -0.044107307 0.007758715
0003b0 d0 d0 0f bd ab df 1e 3d 24 c1 51 3d ca 25 b7 bc
       -0.03511125 0.038787525 0.051209584 -0.022356886
0003c0 56 fa e7 bc d8 24 4c 3d f9 50 6c 3d 2e fc 5e 3d
       -0.028317612 0.049839824 0.05769441 0.054439716
0003d0 16 48 49 bd 27 af 19 3d 43 08 1e 3b 45 d2 19 bd
       -0.049141012 0.037520554 0.002411381 -0.037554044
0003e0 9b e8 85 3c fc 92 ce 3c 0f cb 1e 3d ec ab 8c bd
       0.016346266 0.025216572 0.03876787 -0.06868729
0003f0 09 f7 a5 3c ae 73 8d bc d8 3e 7f bd 03 fc 35 3c
       0.020259397 -0.017267074 -0.06231579 0.011107448

decoder.3.bias f4 [16]
000000 25 27 05 3d 73 e7 0c bd ae 8f 05 bd 73 7e 35 bd
       0.032508034 -0.034400415 -0.032607727 -0.044310044
000010 88 99 a8 bc 55 70 6b bd 6f a9 3d bc 1c 66 57 3b
       -0.020581022 -0.057480175 -0.011576041 0.0032867258
000020 b3 74 5a bd b3 16 cf 3c e2 07 44 bd 4c 49 9f 3c
       -0.05333395 0.025279379 -0.04785908 0.01944413
000030 d9 8b c8 3c 95 08 c3 bc ff 5a 5e bc c4 4c 5c 3d
       0.024480747 -0.023807803 -0.0135715 0.053784147

decoder.4.weight f4 [16]
000000 fa e0 82 3f 9b 8a 82 3f a5 00 84 3f fe 5b 82 3f
       1.0224907 1.0198549 1.0312697 1.0184324
000010 8f 7a 81 3f fd 2a 83 3f d3 63 83 3f 8b 58 80 3f
       1.0115527 1.0247494 1.0264839 1.0027021
000020 80 d3 82 3f f1 41 81 3f 01 d5 7b 3f e3 af 80 3f
       1.0220795 1.0098249 0.98371893 1.0053676
000030 2a 7f 83 3f ee 20 83 3f de b1 82 3f 35 66 83 3f
       1.0273182 1.0244424 1.0210531 1.0265566

decoder.4.bias f4 [16]
000000 53 de 96 3c 22 44 be 3c 90 5f be 3c 6e 6d 75 3c
       0.01841656 0.023225848 0.023238927 0.014979703
000010 c2 a2 68 3c c7 58 08 3d 55 4c 29 3d 5f 2c fb 3c
       0.014198961 0.03328779 0.04133256 0.030660806
000020 de 88 d8 3c 68 8f e4 3c b6 35 66 3c 34 cf fb ba
       0.02643245 0.027900413 0.014050892 -0.0019211532
000030 6d b4 d9 3c c1 61 11 3d ac 15 f7 3c 79 a7 c1 3c
       0.026575292 0.035493616 0.030161701 0.023639427

decoder.4.running_mean f4 [16]
000000 53 63 01 3e b9 58 65 3c f7 07 1a be 2f 8f 32 be
       0.12635545 0.013998204 -0.15042101 -0.17437433
000010 93 2d c3 bd 36 9b ac 3d bb 8f 6c 3d b4 eb 8e bd
       -0.09530177 0.08428042 0.05775426 -0.069785506
000020 bc 96 ac 3d b9 1d b0 3d 45 37 1c be 27 82 ef ba
       0.08427188 0.08599419 -0.15255459 -0.0018273041
000030 f6 c4 ca 3d 76 a1 72 3d 00 fb 0a be 28 86 15 3e
       0.099008486 0.059236012 -0.13572311 0.14601958

decoder.4.running_var f4 [16]
000000 cd f2 82 3e 10 17 65 3e 4f 65 30 3e 6e df 6d 3e
       0.25575867 0.22372079 0.17226146 0.23229763
000010 e2 f1 84 3e 93 17 5c 3e b3 27 62 3e 8c d2 47 3e
       0.25965792 0.21493368 0.22085457 0.19513911
000020 21 fa 56 3e a9 3d 69 3e 11 1d 43 3e 5e 8e 4d 3e
       0.20993854 0.22777428 0.19054057 0.2007384
000030 10 59 66 3e 47 9b 64 3e 98 e6 87 3e 2c 1e 74 3e
       0.22494912 0.22324859 0.26543117 0.23839635
