weights/last.pt (torch, 413010 bytes, 62 tensors)

encoder.0.weight f4 [32, 2, 3, 3]
0.04808798 0.15680985 -0.10833583 -0.12192745 -0.05339209 0.16521683 0.04600058 -0.165923
0.099415295 -0.18575135 -0.20263788 -0.034476787 0.21693337 -0.13518222 -0.23271224 0.18705635
-0.24322651 0.16040345 -0.07296845 -0.05991641 0.18858892 0.25175843 -0.1717961 0.25512022
-0.07482995 0.124105014 0.21992858 0.17932998 0.15353566 -0.11089556 -0.18402995 -0.1196527
0.09895148 -0.11739223 -0.15159419 0.0909979 -0.21252808 0.11905285 -0.038624346 0.18975256
0.0962811 0.1517981 -0.20154028 -0.084071316 -0.0977392 -0.045883954 0.27286258 -0.21671803
0.1095993 0.1480693 0.07741287 0.20260365 -0.13278316 -0.037469372 -0.1518704 -0.005405317
-0.1424753 -0.09570685 -0.101012096 0.037909538 0.07129957 -0.18728058 0.00872929 -0.042323384
0.2947621 0.05744906 -0.22867307 -0.0053147497 0.0977252 -0.18872812 -0.011360469 -0.105039656
0.08551917 -0.05744378 -0.1016778 -0.052466914 0.19509088 0.27008662 -0.13969758 0.063176595
-0.079284534 0.097152054 0.08089268 -0.15388824 -0.097119555 0.08307536 -0.15253367 0.08712997
-0.047157213 -0.17382424 -0.21449615 -0.27915263 0.12140023 -0.04639456 0.16600545 0.05166624
0.20943089 0.06313381 -0.23326498 0.217202 -0.13508369 -0.212917 0.060595263 -0.12724262
-0.079276435 0.2917643 -0.08427647 0.17237937 0.1804344 -0.11329621 -0.10247704 0.23112234
-0.025632573 0.18499218 -0.085979894 -0.036011018 -0.04954997 -0.17764632 -0.17981088 -0.106812276
0.17981508 0.106486656 0.018196147 0.18507451 -0.24890861 -0.1929116 0.19121127 0.09534836
-0.22566588 0.034177125 -0.0331006 0.055205114 -0.16829011 0.15769905 -0.133617 -0.14840218
-0.14992118 -0.13591002 -0.12560733 0.09354307 0.1318479 -0.14060016 0.09069451 0.042612217
-0.13796125 0.06641432 0.21171176 0.21403995 0.19149071 -0.16001 0.08695425 0.10820109
-0.2262909 0.031212255 0.04340744 0.1433846 0.087905735 -0.15198055 0.06748087 0.18859443
0.029573664 0.0024525456 0.2517793 0.2086347 -0.08082814 -0.1564305 -0.11171723 0.15314911
-0.27951747 0.20530817 -0.20185922 0.22665554 -0.004641526 -0.006692212 0.18448491 0.26348963
0.15440321 0.029344482 -0.20586179 -0.17521799 -0.22482832 0.12411557 -0.037316583 -0.10611963
0.10948673 -0.101436004 0.082880765 0.13890533 0.17948867 0.1883044 0.008745354 -0.2326019
-0.10252368 -0.059915744 0.23482776 0.087606 -0.26042706 0.06824119 0.23228097 0.20821847
0.077605 0.09078898 -0.028773744 0.03116739 0.24111538 -0.08195755 -0.08099385 -0.24348551
0.04934477 0.21879017 0.12666565 0.16288976 -0.1540306 -0.16647778 -0.19018364 0.016989637
0.18484566 -0.13500363 -0.049662754 -0.14189549 0.16784361 -0.029521069 -0.007910971 -0.15770526
0.105686344 0.17737779 -0.20651197 0.0031525241 -0.12044579 -0.14650284 0.019639397 0.26944
0.05149832 0.11249941 0.08796541 0.20355381 -0.14266738 0.1091533 -0.06629693 -0.14540929
0.09771375 0.16232541 -0.0716877 0.073496886 0.12898919 0.08167928 0.12773927 -0.19019257
-0.020969136 -0.24116302 0.093578674 -0.004245656 -0.07646252 0.054466937 0.124133356 -0.028029306
00000000: e7f7 443d c392 203e 2ddf ddbd 19b5 f9bd
00000010: aab1 5abd 9a2e 293e 1b6b 3c3d b8e7 29be
00000020: 3f9a cb3d 9a35 3ebe 4e80 4fbe 8837 0dbd
00000030: c823 5e3e 356d 0abe 1e4c 6ebe b38b 3f3e
00000040: 5f10 79be cd40 243e 7c70 95bd e96a 75bd
00000050: 741d 413e 7be6 803e 51eb 2fbe 1e9f 823e
00000060: 7240 99bd c52a fe3d f534 613e 47a2 373e
00000070: 7438 1d3e 361d e3bd 5972 3cbe 7a0c f5bd
00000080: 13a7 ca3d 566b f0bd 823b 1bbe 1b5d ba3d
00000090: f6a0 59be fbd1 f33d 9034 1ebd 7f4e 423e
000000a0: 062f c53d f670 1b3e 9360 4ebe 952d acbd
000000b0: 7d2b c8bd d0f0 3bbd a5b4 8b3e 55eb 5dbe
000000c0: 9975 e03d 7b9f 173e a48a 9e3d 5577 4f3e
000000d0: 4ff8 07be 7c79 19bd ea83 1bbe 161f b1bb
000000e0: 0ce5 11be f401 c4bd 6edf cebd 0847 1b3d
000000f0: 8205 923d 7bc6 3fbe 4c05 0f3c 495b 2dbd
00000100: 0feb 963e b54f 6b3d 4629 6abe 5a27 aebb
00000110: 2624 c83d f241 41be 4321 3abc 081f d7bd
00000120: ad24 af3d 2b4a 6bbd 733c d0bd 8ce7 56bd
00000130: e7c5 473e cb48 8a3e e20c 0fbe bb62 813d
00000140: ee5f a2bd a8f7 c63d 10ab a53d e194 1dbe
00000150: 9ee6 c6bd 6a23 aa3d c931 1cbe 3371 b23d
00000160: ec27 41bd fbfe 31be e1a4 5bbe 18ed 8ebe
00000170: afa0 f83d 3908 3ebd 55fd 293e fb9f 533d
00000180: 0d75 563e 4d4c 813d 04dd 6ebe 336a 5e3e
00000190: 6153 0abe ea06 5abe bd32 783d e44b 02be
000001a0: af5b a2bd 2162 953e 2499 acbd 3884 303e
000001b0: ccc3 383e d807 e8bd 7bdf d1bd 56ab 6c3e
000001c0: 67fb d1bc 976e 3d3e 3a16 b0bd 4a80 13bd
000001d0: e9f4 4abd ebe8 35be 5820 38be 65c0 dabd
000001e0: 7221 383e ad15 da3d 1610 953c 2c84 3d3e
000001f0: e6e1 7ebe 9e8a 45be e3cc 433e 0046 c33d
00000200: f514 67be 50fd 0b3d 7f94 07bd c21e 623d
00000210: 3e54 2cbe dc7b 213e e5d2 08be bef6 17be
00000220: f084 19be ff2b 0bbe 359f 00be 8293 bf3d
00000230: 2303 073e 7df9 0fbe 0bbe b93d 268a 2e3d
00000240: b745 0dbe 3b04 883d f8ca 583e 4a2d 5b3e
00000250: 2416 443e a9d9 23be 1215 b23d 8898 dd3d
00000260: cdb8 67be d8b0 ff3c 00cc 313d 6ad3 123e
00000270: ec07 b43d caa0 1bbe 6933 8a3d e61e 413e
00000280: 7844 f23c e3ba 203b 37e9 803e 56a4 553e
00000290: 3989 a5bd 512f 20be 01cc e4bd 1fd3 1c3e
000002a0: ea1c 8fbe 4e3c 523e 2fb4 4ebe 6418 683e
000002b0: f117 98bb 584a dbbb 9de9 3c3e 1de8 863e
000002c0: e01b 1e3e d763 f03c 6fcd 52be 586c 33be
000002d0: 6539 66be 4e30 fe3d 46d9 18bd 4055 d9bd
000002e0: 943a e03d aebd cfbd 64bd a93d 333d 0e3e
000002f0: e1cb 373e ded2 403e ac48 0f3c 312f 6ebe
00000300: eff7 d1bd 366a 75bd b076 703e c66a b33d
00000310: b256 85be 09c2 8b3d 10db 6d3e 3937 553e
00000320: 5fef 9e3d 93ef b93d eab6 ebbc c152 ff3c
00000330: f3e6 763e 5cd9 a7bd 1be0 a5bd 4454 79be
00000340: be1d 4a3d 880a 603e a4b4 013e 93cc 263e
00000350: 33ba 1dbe 2779 2abe 80bf 42be da2d 8b3c
00000360: 2e48 3d3e 643e 0abe 2c6b 4bbd 0d4d 11be
00000370: 32df 2b3e 2bd6 f1bc 049d 01bc 7d7d 21be
00000380: 1572 d83d 86a2 353e e077 53be 949a 4e3b
00000390: 48ac f6bd d704 16be cde2 a03c 0af4 893e
000003a0: e7ef 523d 1766 e63d 3527 b43d 6970 503e
000003b0: 6617 12be c48b df3d afc6 87bd 2ce6 14be
000003c0: 261e c83d a238 263e 00d1 92bd 8985 963d
000003d0: be15 043e 7747 a73d 15ce 023e d7c1 42be
000003e0: 77c7 abbc 70f3 76be 2da6 bf3d 251f 8bbb
000003f0: 6298 9cbd b918 5f3d a139 fe3d b79d e5bc

encoder.0.bias f4 [32]
-0.15672481 0.15810059 -0.18025431 -0.17508309 -0.21572548 0.0013231819 -0.16993558 -0.19778764
0.0295615 0.177389 -0.049830616 0.081592724 -0.092193894 -0.06965677 0.21228625 0.16655411
-0.22499323 0.14474712 -0.22986606 -0.12156525 0.023723587 -0.038886115 0.09495823 -0.21839096
0.06125615 -0.03711095 -0.03583081 0.036962435 -0.17443243 0.18112092 -0.18802702 0.036555562
00000000: 787c 20be 1fe5 213e 9694 38be fb48 33be
00000010: 24e7 5cbe 9e6e ad3a 9803 2ebe d888 4abe
00000020: f52a f23c 76a5 353e 301b 4cbd 161a a73d
00000030: 27d0 bcbd 35a8 8ebd 9161 593e 298d 2a3e
00000040: a064 66be 9738 143e 0262 6bbe 34f7 f8bd
00000050: f857 c23c 0c47 1fbd 7679 c23d e1a1 5fbe
00000060: bbe7 7a3d a701 18bd 54c3 12bd ec65 173d
00000070: 6a9e 32be c377 393e 288a 40be 49bb 153d

encoder.1.weight f4 [32]
0.9534817 0.9881147 0.9768311 1.0059247 0.98481226 1.0212781 0.96941745 1.0019495
1.0085262 1.0477495 1.0301753 1.0027479 1.0620936 0.982322 0.98820716 0.96647143
0.99595153 1.0187867 0.9937319 1.0375631 0.95627815 1.0134685 0.9840943 1.0170088
0.9639152 1.0284152 0.9792934 0.994163 0.9660772 1.0282109 0.9961841 0.9661349
00000000: 6017 743f 16f5 7c3f 9a11 7a3f 24c2 803f
00000010: a81c 7c3f 3eb9 823f be2b 783f e23f 803f
00000020: 6317 813f a81c 863f c9dc 833f 0b5a 803f
00000030: aff2 873f 7479 7b3f 25fb 7c3f ac6a 773f
00000040: aef6 7e3f 9a67 823f 3765 7e3f dece 843f
00000050: a5ce 743f 56b9 813f 9bed 7b3f 582d 823f
00000060: 26c3 763f 1ca3 833f f9b2 7a3f 7781 7e3f
00000070: d650 773f 6a9c 833f ec05 7f3f 9e54 773f

encoder.1.bias f4 [32]
-0.069498256 0.053385846 -0.08514603 -0.03640497 -0.06593596 -0.024025243 -0.069731496 -0.082718655
-0.09192564 -0.11083047 -0.11149507 -0.052704647 -0.12142174 -0.025168808 -0.014043601 0.030626003
-0.103933774 -0.12589014 -0.13475308 -0.042434126 -0.05735585 -0.051307686 -0.12642643 -0.0639234
-0.059164595 -0.01771612 -0.027188076 -0.04578371 -0.0006085244 0.028732542 -0.079213746 -0.039390754
00000000: 1a55 8ebd 1eab 5a3d 0b61 aebd 611d 15bd
00000010: 6f09 87bd 96d0 c4bc 63cf 8ebd 6668 a9bd
00000020: 8343 bcbd 16fb e2bd 8757 e4bd d4e0 57bd
00000030: f6ab f8bd d12e cebc 2217 66bc 62e3 fa3c
00000040: 3bdb d4bd 58e9 00be b6fc 09be 68cf 2dbd
00000050: f8ed 6abd 0228 52bd ee75 01be 46ea 82bd
00000060: 9356 72bd 6621 91bc 87b9 debc b387 3bbd
00000070: 6285 1fba 8260 eb3c d13a a2bd 3358 21bd

encoder.1.running_mean f4 [32]
-0.1600051 0.15506205 -0.18318178 -0.17013422 -0.22050059 0.0075028874 -0.17171204 -0.20300841
0.027656933 0.17421378 -0.050252818 0.076179355 -0.09503274 -0.07055939 0.20475164 0.16396603
-0.23443355 0.15030396 -0.22671872 -0.1139216 0.026762616 -0.046612486 0.0880031 -0.21969101
0.06824707 -0.036874916 -0.042525798 0.041190207 -0.17516813 0.17852236 -0.19364387 0.034436814
00000000: 60d8 23be 96c8 1e3e 0194 3bbe aa37 2ebe
00000010: e8ca 61be c8da f53b 48d5 2fbe 70e1 4fbe
00000020: cb90 e23c 1965 323e e6d5 4dbd ec03 9c3d
00000030: 86a0 c2bd 7181 90bd 6aaa 513e b6e6 273e
00000040: 590f 70be 48e9 193e f428 68be ba4f e9bd
00000050: 463d db3c bcec 3ebd f83a b43d aef6 60be
00000060: 1fc5 8b3d 270a 17bd 882f 2ebd 10b7 283d
00000070: 465f 33be 91ce 363e 944a 46be 9e0d 0d3d

encoder.1.running_var f4 [32]
0.17761248 0.17607503 0.15122879 0.11671502 0.12049012 0.174999 0.14852744 0.09837317
0.13329762 0.23567797 0.13986027 0.14352314 0.13319494 0.122712605 0.11991019 0.15991351
0.1774978 0.14914906 0.12458965 0.18639097 0.1391576 0.14490448 0.18105468 0.1681907
0.19526376 0.10733395 0.16549356 0.101325765 0.11817447 0.15002261 0.09831438 0.13986012
00000000: 0ce0 353e 034d 343e b8db 1a3e 4908 ef3d
00000010: 86c3 f63d f032 333e 9417 183e df77 c93d
00000020: 2c7f 083e 9155 713e 8837 0f3e bbf7 123e
00000030: 4164 083e bf50 fb3d 7993 f53d 5ec0 233e
00000040: fcc1 353e 88ba 183e dc28 ff3d 46dd 3e3e
00000050: 547f 0e3e d761 143e 6666 393e 2f3a 2c3e
00000060: 39f3 473e e7d1 db3d 2577 293e e283 cf3d
00000070: 7505 f23d 879f 193e 0d59 c93d 7e37 0f3e

encoder.3.weight f4 [64, 32, 3, 3]
-0.043576516 -0.099573486 0.03637897 0.020288607 -0.019575143 -0.027431095 0.051902767 -0.004602726
0.0010979946 0.020703163 0.065316066 0.05713745 -0.07711388 -0.003783713 -0.012048885 0.0032275403
-0.028811121 -0.005503647 0.043829218 -0.03886249 -0.04499834 -0.00062966486 0.048420474 -0.011521296
-0.032936998 -0.001367187 0.022044158 -0.028913101 0.020177552 0.042106308 -0.14471161 0.06878637
-0.014225536 -0.0040964466 -0.020588579 0.043579765 -0.03517464 0.009548684 -0.108428195 -0.0024393366
0.04611847 0.016296618 0.07449652 -0.0021695637 0.028230386 -0.01045287 -0.09290569 -0.03682457
-0.01576883 0.060279787 0.019528305 0.10465932 -0.047735874 0.011642645 -0.011098023 0.11236481
0.037941776 -0.013190775 -0.059254386 0.047336623 0.047056735 -0.014093212 0.022032706 0.028526317
0.09534067 -0.07134787 0.008384859 0.0006095674 -0.0045838403 -0.052389156 -0.015703952 0.02860433
0.035868857 0.031734016 -0.09150519 0.03474202 0.069441356 -0.03182879 0.0054955115 0.08715245
-0.022488032 0.016231297 0.020793026 0.043101415 -0.03968385 0.034110002 0.10617702 0.02598317
-0.098164804 -0.008167588 -0.033414625 -0.013205452 0.024297232 -0.07429443 -0.06331683 0.061640464
-0.043090202 0.024259156 0.062012006 -0.020976339 0.04190531 0.013225269 -0.06026938 -0.0564188
0.02250182 -0.006501055 0.02280092 -0.08253352 0.010634211 0.09751828 0.009784161 -0.055813726
-0.00806082 0.011733868 0.021727223 -0.008004594 -0.035242174 -0.0033973153 0.009076379 -0.030782776
0.01653967 -0.09129406 -0.011245273 0.06347294 -0.055657905 0.08739269 -0.04617642 -0.029566722
-0.0754528 -0.057215802 -0.06797678 0.007195394 -0.023052894 -0.009301704 -0.015864648 0.030208243
0.031124366 0.03130134 0.01108708 0.009787032 0.026285501 0.008951372 0.017236397 0.029975103
0.028450873 -0.045801945 0.025145054 0.10381697 0.0536324 -0.003557376 -0.0961266 -0.021314291
0.032553483 -0.05462259 0.014325153 0.02829504 -0.018605653 0.08348838 -0.0470235 -0.0104276445
0.056601282 -0.0392519 -0.00025540974 0.08579227 -0.06011162 0.0080718305 0.0958341 -0.0062539387
0.08882666 -0.0173349 0.0031010546 0.047061015 0.038000267 0.04292148 -0.04988894 0.03199886
-0.061870378 -0.10741692 -0.05364606 -0.03165285 -0.055187568 0.038754217 -0.0063521843 0.038980495
0.09222854 -0.021376114 0.051526677 -0.05215013 -0.08077349 -0.0059267576 0.028038274 -0.10534084
0.036230322 -0.051410202 0.069267474 0.034564365 0.013343853 0.112515725 0.02652795 -0.028268537
0.013832801 0.04144116 -0.12605211 -0.025752451 -0.015652662 0.03893311 0.036128018 0.0943507
-0.049067806 0.06164215 -0.011551622 -0.026903108 -0.016092427 0.022425659 -0.06402041 -0.061910976
0.033850804 0.02507533 -0.04414509 0.052349504 0.08836231 0.08565894 0.019596219 -0.05630963
0.04260073 -0.08338734 -0.06014964 0.07616164 0.030629056 -0.04606516 -0.026755841 -0.059647404
0.03092315 -0.0346347 0.032060705 -0.0027239542 -0.09385314 -0.045668818 -0.044305965 0.063847564
-0.037279412 0.043180164 -0.1122264 -0.038374033 -0.041611742 -0.020308299 -0.059785116 -0.09555853
0.09922426 0.026796354 -0.036882762 -0.004061831 0.006962051 -0.054014254 -0.090941146 -0.09892656
00000000: 4a7d 32bd 2fed cbbd 1d02 153d 4b34 a63c
00000010: 0d5c a0bc 2db7 e0bc ff97 543d 77d2 96bb
00000020: 96ea 8f3a ae99 a93c 6ec4 853d f508 6a3d
00000030: e2ed 9dbd 2cf8 77bb b068 45bc 2485 533b
00000040: 4d05 ecbc f057 b4bb 4486 333d 462e 1fbd
00000050: 2e50 38bd 1810 25ba 8c54 463d d1c3 3cbc
00000060: f2e8 06bd 2f33 b3ba f395 b43c 2bdb ecbc
00000070: 654b a53c aa77 2c3d 482f 14be dedf 8c3d
00000080: 3912 69bc 7c3b 86bb 61a9 a8bc b280 323d
00000090: 4913 10bd 1572 1c3c 9a0f debd 47dd 1fbb
000000a0: b9e6 3c3d 7c80 853c a291 983d 3d2f 0ebb
000000b0: 6943 e73c 8442 2bbc 5745 bebd 5cd5 16bd
000000c0: a22d 81bc f0e7 763d d3f9 9f3c a057 d63d
000000d0: b186 43bd cbc0 3e3c 7bd4 35bc 861f e63d
000000e0: d668 1b3d 1f1e 58bc bab4 72bd 0ce4 413d
000000f0: 90be 403d 37e7 66bc ef7d b43c 06b0 e93c
00000100: f841 c33d d51e 92bd a660 093c 60cb 1f3a
00000110: 0a34 96bb 0396 56bd 93a5 80bc a153 ea3c
00000120: 39eb 123d 87fb 013d 1367 bbbd a64d 0e3d
00000130: 4537 8e3d e85e 02bd b113 b43b fc7c b23d
00000140: d238 b8bc 7ff7 843c 2356 aa3c 1c8b 303d
00000150: 888b 22bd eeb6 0b3d 5673 d93d a8da d43c
00000160: a10a c9bd 59d1 05bc c6dd 08bd ae5b 58bc
00000170: fd0a c73c ae27 98bd 41ac 81bd b67a 7c3d
00000180: 5a7f 30bd 23bb c63c 4d00 7e3d 92d6 abbc
00000190: e7a4 2b3d ccae 583c 07dd 76bd 6617 67bd
000001a0: bd55 b83c cd06 d5bb ffc8 ba3c 5607 a9bd
000001b0: 1d3b 2e3c aab7 c73d bf4d 203c ef9c 64bd
000001c0: 8811 04bc 693f 403c 4afd b13c b325 03bc
000001d0: 195a 10bd 7ea5 5ebb 18b5 143c 292c fcbc
000001e0: 347e 873c 61f8 babd 183e 38bc 1afe 813d
000001f0: 8bf9 63bd f0fa b23d 7c23 3dbd e935 f2bc
00000200: ff86 9abd 1e5b 6abd 6937 8bbd 57c7 eb3b
00000210: 6cd9 bcbc 2d66 18bc 94f6 81bc 4777 f73c
00000220: 87f8 fe3c d535 003d 96a6 353c ca59 203c
00000230: b154 d73c c6a8 123c 5833 8d3c 598e f53c
00000240: ce11 e93c d29a 3bbd 00fd cd3c fe9d d43d
00000250: a6ad 5b3d de22 69bb 06de c4bd 4f9b aebc
00000260: cd56 053d f0bb 5fbd 0cb4 6a3c 00cb e73c
00000270: e26a 98bc f5fb aa3d b79b 40bd b6d8 2abc
00000280: bfd6 673d 9ac6 20bd 84e8 85b9 dcb3 af3d
00000290: 9a37 76bd b63f 043c ab44 c43d d7ed ccbb
000002a0: c0ea b53d ec01 8ebc 103b 4b3b 0dc3 403d
000002b0: 2ba6 1b3d 6fce 2f3d 5858 4cbd 3d11 033d
000002c0: cb6b 7dbd 67fd dbbd f9bb 5bbd 6ba6 01bd
000002d0: 5c0c 62bd bebc 1e3d fc25 d0bb 03aa 1f3d
000002e0: 51e2 bc3d f61c afbc a30d 533d 609b 55bd
000002f0: 926c a5bd 3f35 c2bb 86b0 e53c f0bc d7bd
00000300: 3f66 143d 8193 52bd 1bdc 8d3d 5d93 0d3d
00000310: 2da0 5a3c a56e e63d 2551 d93c 6b93 e7bc
00000320: f9a2 623c 35be 293d ce13 01be cef6 d2bc
00000330: 033a 80bc 5378 1f3d f9fa 133d f13a c13d
00000340: 53fb 48bd 7b7c 7c3d 0443 3dbc e863 dcbc
00000350: 44d4 83bc 04b6 b73c 221d 83bd 5d96 7dbd
00000360: 24a7 0a3d c76a cd3c 7bd1 34bd 6f6c 563d
00000370: 4cf7 b43d f46d af3d 4088 a03c eda4 66bd
00000380: 1a7e 2e3d fbc6 aabd 785f 76bd a2fa 9b3d
00000390: c9e9 fa3c d2ae 3cbd 112f dbbc d650 74bd
000003a0: 8c52 fd3c 1ddd 0dbd 1652 033d 5e84 32bb
000003b0: 1336 c0bd 3a0f 3bbd 2c7a 35bd 83c2 823d
000003c0: 4cb2 18bd afdd 303d f4d6 e5bd 172e 1dbd
000003d0: 1371 2abd 975d a6bc 3de1 74bd 31b4 c3bd
000003e0: 1736 cb3d 0784 db3c 6112 17bd 1c19 85bb
000003f0: eb21 e43b 0d3e 5dbd 5a3f babd 029a cabd

encoder.3.bias f4 [64]
0.010490584 0.007584226 -0.04317505 0.03863059 0.03540576 0.008935022 0.019105006 -0.054009218
0.054592323 -0.043023985 0.027267158 -0.05533202 -0.0351432 -0.022316625 0.046333086 -0.02635342
0.0008541645 0.032777157 -0.05842019 -0.053445395 -0.045015078 0.011537457 0.033041023 -0.020167781
-0.049018513 -0.009599916 0.013393721 0.0565738 0.05508406 0.052194923 0.018010994 0.042411115
-0.039280068 -0.0061095688 -0.01613471 0.005943595 -0.012262461 -0.040410805 0.043396287 0.00014452753
0.021445384 0.009711078 0.00488644 -0.028913673 -0.05315697 0.051185183 -0.00985779 -0.038131244
0.022347284 0.021239417 0.010465705 -0.004980558 0.05392902 0.053920757 0.021061677 -0.055152323
0.009529472 -0.051375564 -0.04153405 -0.014834447 -0.028551744 0.030677795 -0.0446925 -0.021054408
00000000: b3e0 2b3c 1985 f83b 52d8 30bd 1c3b 1e3d
00000010: a105 113d 3364 123c 1a82 9c3c c538 5dbd
00000020: 339c 5f3d eb39 30bd 605f df3c d4a3 62bd
00000030: 51f2 0fbd 5bd1 b6bc c3c7 3d3d 21e3 d7bc
00000040: 02ea 5f3a 5741 063d 024a 6fbd 8fe9 5abd
00000050: bb61 38bd 9a07 3d3c 0656 073d e736 a5bc
00000060: a3c7 48bd f748 1dbc 5671 5b3c eeb9 673d
00000070: d39f 613d 58ca 553d cb8b 933c 47b7 2d3d
00000080: 23e4 20bd c732 c8bb f02c 84bc 7dc2 c23b
00000090: 7de8 48bc cd85 25bd 4ec0 313d 508c 1739
000000a0: 3bae af3c 371b 1f3c 6e1e a03b 5edc ecbc
000000b0: 1fbb 59bd 8ea7 513d 9182 21bc 822f 1cbd
000000c0: a711 b73c 49fe ad3c 5978 2b3c f333 a3bb
000000d0: ade4 5c3d 03dc 5c3d 8a89 ac3c 67e7 61bd
000000e0: 8121 1c3c 2f6f 52bd 9c1f 2abd 2e0c 73bc
000000f0: 59e5 e9bc 0050 fb3c 7c0f 37bd 4b7a acbc

encoder.4.weight f4 [64]
0.99802876 1.0157278 0.99504167 0.9857757 0.9930365 0.9723474 1.0094105 0.9909501
1.041943 0.9984917 0.92986906 1.0172144 1.0190326 1.0013196 0.98217034 0.98736125
0.996316 0.9847871 0.97287863 1.0002956 0.988195 1.0598131 1.0021414 0.99713296
0.983363 1.0263755 1.0250907 1.0434088 0.9789593 0.97991776 1.0193354 1.0079241
1.0076345 1.000146 0.988414 0.97349834 1.0169381 0.9649341 0.98966646 1.0087588
1.0213971 1.0021685 0.9694897 0.99404913 1.035378 1.0096183 0.99523604 0.996112
0.9925974 1.0415069 1.0180649 0.9991456 0.9597058 1.0286481 0.98801595 1.0001014
1.0169566 0.98388475 1.0021245 1.0085481 1.013209 0.9960014 0.98876345 0.99186546
00000000: d07e 7f3f 5e03 823f 0dbb 7e3f cc5b 7c3f
00000010: a437 7e3f c2eb 783f 5d34 813f e8ae 7d3f
00000020: 635e 853f 279d 7f3f e60b 6e3f 1534 823f
00000030: a96f 823f 3e2b 803f 846f 7b3f b5c3 7c3f
00000040: 910e 7f3f 021b 7c3f 930e 793f b009 803f
00000050: 59fa 7c3f f5a7 873f 2b46 803f 1b44 7f3f
00000060: adbd 7b3f 4660 833f 2c36 833f 6b8e 853f
00000070: 149d 7a3f e4db 7a3f 9579 823f a803 813f
00000080: 2bfa 803f c904 803f b308 7d3f 3037 793f
00000090: 072b 823f ec05 773f c85a 7d3f 021f 813f
000000a0: 24bd 823f 0f47 803f 7a30 783f 017a 7e3f
000000b0: 4487 843f 2c3b 813f cac7 7e3f 3201 7f3f
000000c0: dd1a 7e3f 1950 853f f34f 823f 02c8 7f3f
000000d0: 48af 753f beaa 833f 9dee 7c3f 5303 803f
000000e0: a22b 823f dfdf 7b3f 9e45 803f 1b18 813f
000000f0: d5b0 813f f3f9 7e3f 9a1f 7d3f e5ea 7d3f

encoder.4.bias f4 [64]
-0.057036474 -0.10596217 -0.058644995 -0.026647277 -0.007971723 -0.06676756 -0.08744262 -0.048117176
-0.038177703 -0.07060705 -0.099404834 -0.06257519 -0.07607648 -0.09419101 -0.0961589 -0.07760375
-0.03547357 -0.05697442 -0.09417103 -0.07916594 -0.12326023 -0.1292742 -0.060958605 -0.031487767
-0.046064425 -0.076955885 -0.10937382 -0.059593525 -0.036278818 -0.05444767 -0.025418647 -0.06538532
-0.100828744 -0.07915659 -0.077337146 -0.09503584 -0.09660664 -0.06914575 -0.025642967 -0.015300133
-0.10000485 -0.020678012 -0.13112465 -0.045544993 -0.070555165 -0.15758914 -0.042239036 -0.06638909
-0.09461674 -0.071973465 -0.056420133 -0.03666504 -0.049228545 -0.118574604 -0.10772534 -0.081792556
-0.09496707 -0.10998622 -0.09470104 -0.118473284 -0.070721485 -0.088734575 -0.04732648 -0.052904565
00000000: 149f 69bd b202 d9bd bc35 70bd 644b dabc
00000010: d49b 02bc 6ebd 88bd 1e15 b3bd 8416 45bd
00000020: 3960 1cbd 6e9a 90bd c394 cbbd 6c27 80bd
00000030: fccd 9bbd 37e7 c0bd f5ee c4bd b7ee 9ebd
00000040: bc4c 11bd 025e 69bd bedc c0bd c121 a2bd
00000050: dc6f fcbd 7560 04be bbaf 79bd 51f9 00bd
00000060: 0dae 3cbd 0c9b 9dbd 62ff dfbd 5718 74bd
00000070: 1999 14bd 8504 5fbd c43a d0bc bde8 85bd
00000080: 4d7f cebd da1c a2bd f062 9ebd 27a2 c2bd
00000090: b4d9 c5bd 499c 8dbd 3311 d2bc 69ad 7abc
000000a0: 58cf ccbd ef64 a9bc 8a45 06be 638d 3abd
000000b0: 3a7f 90bd 0c5f 21be d702 2dbd 01f7 87bd
000000c0: 6cc6 c1bd d366 93bd cc18 67bd 152e 16bd
000000d0: dfa3 49bd 3ed7 f2bd 1a9f dcbd db82 a7bd
000000e0: 187e c2bd 7540 e1bd 9ef2 c1bd 1fa2 f2bd
000000f0: 6dd6 90bd 79ba b5bd 69d9 41bd 75b2 58bd

encoder.4.running_mean f4 [64]
-0.11200214 0.11091639 -0.39506796 -0.27848253 -0.27564126 -0.35309052 -0.06603824 -0.49304527
-0.40031075 -0.374497 -0.007578942 -0.35366195 -0.2976581 -0.1519112 -0.17849034 -0.42547274
-0.33700022 -0.46708068 -0.10041582 0.047724947 -0.44668058 -0.3793727 -0.38449076 -0.2831038
-0.51624507 -0.0034570766 -0.13030435 -0.5411224 -0.32885915 -0.53383523 -0.23213637 -0.2235287
-0.21868563 -0.020136053 -0.24028921 -0.08476153 -0.031951625 -0.0923715 -0.3753019 -0.41385907
-0.16590756 -0.35527048 0.12147385 -0.25364724 -0.15588994 0.31085923 0.20605367 0.039618347
-0.11015847 -0.14838974 -0.47235534 -0.14633459 -0.2895539 -0.34058312 -0.073433466 -0.13233241
-0.6093703 -0.08615972 -0.08116599 0.028373076 -0.058198858 0.21029691 -0.7507577 -0.10137745
00000000: 6161 e5bd 2228 e33d 5946 cabe 4395 8ebe
00000010: da20 8dbe 48c8 b4be 0f3f 87bd 6e70 fcbe
00000020: 88f5 ccbe 12be bfbe c658 f8bb 2e13 b5be
00000030: a466 98be 9c8e 1bbe 2cc6 36be 90d7 d9be
00000040: 4b8b acbe 3325 efbe cfa6 cdbd 3c7b 433d
00000050: 51b3 e4be 233d c2be f9db c4be fbf2 90be
00000060: a328 04bf 1f90 62bb 816e 05be ff86 0abf
00000070: 3a60 a8be 6da9 08bf 28b5 6dbe b5e4 64be
00000080: 20ef 5fbe 5df4 a4bc 600e 76be 7497 adbd
00000090: b5df 02bd 452d bdbd 9227 c0be 56e5 d3be
000000a0: ace3 29be 03e6 b5be 48c7 f83d 0dde 81be
000000b0: 9da1 1fbe f128 9f3e bcff 523e d946 223d
000000c0: c49a e1bd 7bf3 17be 8fd8 f1be bcd8 15be
000000d0: 6940 94be e960 aebe 4964 96bd 2682 07be
000000e0: b1ff 1bbf 8274 b0bd 5b3a a6bd a76e e83c
000000f0: ed61 6ebd 1358 573e a831 40bf fb9e cfbd

encoder.4.running_var f4 [64]
0.18429194 0.13328978 0.20946431 0.31898892 0.29954898 0.36608964 0.18729238 0.28872812
0.20633101 0.21351647 0.19531155 0.14442264 0.22478965 0.18517722 0.2695525 0.25966874
0.19189289 0.21759826 0.19798207 0.21140443 0.1841106 0.20693387 0.23827985 0.30410483
0.24176784 0.1781092 0.21285662 0.23874785 0.2691544 0.2858647 0.2496194 0.15790868
0.1612258 0.2068898 0.20842548 0.23554048 0.1687952 0.31045347 0.24575526 0.17609106
0.14364071 0.26758903 0.15477802 0.3543649 0.16837949 0.18390252 0.24283728 0.1862501
0.16768675 0.18225843 0.22805218 0.2294884 0.34729803 0.20917785 0.23988035 0.22280581
0.2076486 0.2736159 0.15727054 0.15745066 0.1500984 0.20634979 0.299036 0.23582081
00000000: 07b7 3c3e 1e7d 083e d07d 563e 8452 a33e
00000010: 7c5e 993e 1a70 bb3e 93c9 3f3e 2cd4 933e
00000020: 7048 533e 10a4 5a3e c0ff 473e 87e3 133e
00000030: 422f 663e 199f 3d3e c902 8a3e 4df3 843e
00000040: 927f 443e 14d2 5e3e d0bb 4a3e 677a 583e
00000050: 7d87 3c3e 79e6 533e a2ff 733e a1b3 9b3e
00000060: fd91 773e 4262 363e 16f7 593e 517a 743e
00000070: 9bce 893e dc5c 923e 3a9c 7f3e d0b2 213e
00000080: 6018 253e ebda 533e 7d6d 553e 8631 713e
00000090: a6d8 2c3e c2f3 9e3e 44a7 7b3e 3751 343e
000000a0: 8d16 133e 6e01 893e 217e 1e3e 516f b53e
000000b0: ac6b 2c3e f150 3c3e 56aa 783e 59b8 3e3e
000000c0: 13b6 2b3e f4a1 3a3e 8386 693e 02ff 6a3e
000000d0: 0cd1 b13e b832 563e 32a3 753e 3527 643e
000000e0: d6a1 543e 6217 8c3e 870b 213e bf3a 213e
000000f0: 65b3 193e 5c4d 533e 3f1b 993e 037b 713e

decoder.0.weight f4 [64, 32, 2, 2]
0.046722844 -0.040034287 0.020582132 -0.08032565 -0.025256056 0.0781825 0.0107473405 -0.036349673
0.046289034 0.11051008 -0.024343079 0.1113755 -0.06777484 0.0013618532 -0.024332695 0.068632096
0.07226036 0.0040270425 -0.08565648 0.055560146 -0.08275028 -0.031567812 -0.043138843 -0.043310035
-0.03573262 -0.026675474 -0.1065871 -0.009950139 -0.08005598 -0.017425932 0.061087366 -0.035417635
0.0636471 -0.07239779 0.011075776 0.013039815 -0.10071031 0.02316641 -0.02117762 0.07687839
0.14097369 -0.0149481995 0.08071138 0.022007078 -0.13333052 0.06134344 -0.1272206 -0.031943735
0.017433297 -0.04056922 -0.07094277 0.07808957 0.061892595 -0.045027312 0.028790412 -0.019055039
-0.15258186 0.07511621 -0.033162378 0.012097472 0.008333138 0.053405516 -0.037239116 0.010617911
-0.017808339 -0.07204098 0.026328187 0.071327135 -0.09179957 -0.043157984 -0.16628185 0.037044033
0.0034643568 0.103068866 -0.07783992 -0.028884813 -0.036499754 -0.007291897 0.060202707 0.0012581986
-0.07288951 0.084617466 0.08481177 -0.054961786 0.023036761 0.06927433 -0.011064527 0.007464219
0.046725154 -0.0781021 -0.02306058 0.0013609679 0.04705378 0.0067295018 0.07816704 0.055132255
-0.051867776 -0.05595559 -0.051497646 0.04926574 -0.017288044 0.004584836 -0.07487057 -0.042313162
-0.109508626 0.023637904 -0.009917446 0.040896196 0.010170693 0.13791765 -0.064125106 0.09109168
0.03750258 0.049813133 -0.095101185 0.037634004 0.10516308 0.092175126 0.06966916 0.06018276
-0.012278063 -0.00510694 -0.031834163 -0.12673122 -0.0385026 -0.053295407 -0.052842114 -0.012241487
0.0032577533 -0.08823625 0.08992052 -0.11784144 0.050799914 0.036178812 -0.10978796 -0.071145006
0.022320159 0.02916143 -0.046603132 0.034213345 0.032391462 -0.028881537 0.04631817 -0.042104043
0.0067068106 -0.1080925 0.0072931754 -0.08200838 0.09670512 0.03068148 -0.13480882 0.02122705
-0.18934502 -0.02128649 0.12812996 -0.09979637 0.089755595 -0.02191817 -0.036806695 0.032066848
-0.07805336 -0.037256088 0.16573423 0.010967831 0.07916851 0.044018354 0.026188558 0.042316508
-0.07764537 0.024786558 0.05283552 0.069595404 0.09164668 0.048983514 0.013867411 -0.04888654
0.09508066 -0.116984956 0.043348365 0.029369334 0.0006508659 0.047268536 0.10309052 0.096513376
0.10678295 0.07336293 0.019340433 0.020389156 0.041191377 -0.08978905 0.027714904 -0.03625518
0.0645429 -0.012911189 -0.08100011 0.0013134786 -0.02242562 0.011155681 -0.031843703 -0.067121
0.022845779 -0.032927245 -0.097111 -0.007425128 -0.13092251 -0.07121829 -0.069892816 0.10381495
-0.015692526 0.03462305 -0.08390273 -0.046304118 0.06981506 -0.09109651 0.046809714 0.08902123
-0.07741861 -0.08560206 -0.04326442 -0.06223312 -0.023117187 -0.05245985 -0.10053736 0.07168187
0.019461736 0.027364528 -0.009764415 0.012977429 -0.062597506 0.05528824 -0.09057514 -0.01267432
-0.02088498 0.007132014 0.05677099 -0.037671126 -0.059303485 0.032570988 -0.06785271 -0.043143407
0.04495619 0.048808023 0.084577076 -0.0016213047 -0.068782456 0.02576857 0.07002388 -0.035479188
0.015475075 0.0422451 0.078080624 0.0064445636 -0.08891221 0.0068803695 0.03249307 -0.05698793
00000000: 7460 3f3d fefa 23bd dc9b a83c c681 a4bd
00000010: cae5 cebc 261e a03d 9d15 303c 65e3 14bd
00000020: 9299 3d3d 1c53 e23d 236b c7bc d718 e43d
00000030: 89cd 8abd 3680 b23a 5c55 c7bc fc8e 8c3d
00000040: 3dfd 933d 48f5 833b aa6c afbd 0993 633d
00000050: fb78 a9bd 404d 01bd 5bb2 30bd dd65 31bd
00000060: 5e5c 12bd 8686 dabc 564a dabd e805 23bc
00000070: 64f4 a3bd d4c0 8ebc bf36 7a3d 1512 11bd
00000080: 6959 823d 4b45 94bd 2c77 353c f3a4 553c
00000090: 3541 cebd 7cc7 bd3c b07c adbc 6b72 9d3d
000000a0: 685b 103e 4be9 74bc 024c a53d 3048 b43c
000000b0: cc87 08be 4243 7b3d 1e46 02be 6fd7 02bd
000000c0: 46d0 8e3c e92b 26bd 714a 91bd 6ded 9f3d
000000d0: 1783 7d3d 8f6e 38bd dfd9 eb3c 5019 9cbc
000000e0: 6b3e 1cbe 87d6 993d 46d5 07bd 7a34 463c
000000f0: b787 083c bebf 5a3d 0b88 18bd bff6 2d3c
00000100: cbe2 91bc 398a 93bd 36ae d73c f613 923d
00000110: 6a01 bcbd 6dc6 30bd ca45 2abe 7cbb 173d
00000120: 430a 633b c515 d33d 896a 9fbd d89f ecbc
00000130: c480 15bd def0 eebb 1d97 763d 24ea a43a
00000140: 1847 95bd ec4b ad3d cbb1 ad3d 9c1f 61bd
00000150: 97b7 bc3c b3df 8d3d fd47 35bc 6896 f43b
00000160: e062 3f3d fef3 9fbd 8be9 bcbc 8162 b23a
00000170: 77bb 403d 2783 dc3b 0b16 a03d 5cd2 613d
00000180: 4e73 54bd b031 65bd 32ef 52bd dfca 493d
00000190: a89f 8dbc 643c 963b be55 99bd 9150 2dbd
000001a0: 0f46 e0bd 47a4 c13c c97c 22bc c582 273d
000001b0: faa2 263c 493a 0d3e 0654 83bd 468e ba3d
000001c0: 4e9c 193d db08 4c3d 69c4 c2bd 1d26 1a3d
000001d0: be5f d73d 50c6 bc3d b4ae 8e3d 3382 763d
000001e0: ee29 49bc 1e58 a7bb 8a64 02bd d4c5 01be
000001f0: e7b4 1dbd 494c 5abd f970 58bd 8590 48bc
00000200: 0880 553b 35b5 b4bd 4028 b83d da56 f1bd
00000210: 9213 503d 3c30 143d 83d8 e0bd 79b4 91bd
00000220: c4d8 b63c f4e3 ee3c ede2 3ebd 4b23 0c3d
00000230: e9ac 043d f998 ecbc 1fb8 3d3d 4a75 2cbd
00000240: cec4 db3b 9a5f ddbd 97fb ee3b 02f4 a7bd
00000250: 550d c63d ba57 fb3c 530b 0abe 5ae4 ad3c
00000260: a9e3 41be 0161 aebc 8034 033e 0a62 ccbd
00000270: c8d1 b73d bc8d b3bc 9ec2 16bd 8758 033d
00000280: 71da 9fbd d799 18bd 3cb6 293e 6bb2 333c
00000290: 1a23 a23d 974c 343d 6389 d63c 1354 2d3d
000002a0: 8904 9fbd 2e0d cb3c 0f6a 583d 0988 8e3d
000002b0: 41b1 bb3d f0a2 483d 2334 633c 413d 48bd
000002c0: a6b9 c23d cf95 efbd 0e8e 313d f597 f03c
000002d0: df9e 2a3a a79c 413d 1f21 d33d cea8 c53d
000002e0: 05b1 da3d 4e3f 963d d46f 9e3c 2907 a73c
000002f0: 4ab8 283d 52e3 b7bd 5e0a e33c 5080 14bd
00000300: 112f 843d 7489 53bc 63e3 a5bd 0729 ac3a
00000310: efb5 b7bc 51c6 363c 8b6e 02bd bc76 89bd
00000320: 1227 bb3c b8de 06bd 22e2 c6bd 7d4e f3bb
00000330: 8d10 06be e5da 91bd f723 8fbd ef9c d43d
00000340: 9d8d 80bc e6d0 0d3d 32d5 abbd 63a9 3dbd
00000350: 33fb 8e3d cf90 babd 8bbb 3f3d c350 b63d
00000360: a68d 9ebd 2250 afbd 0836 31bd 28e8 7ebd
00000370: 4160 bdbc 24e0 56bd 88e6 cdbd f2cd 923d
00000380: 386e 9f3c 932b e03c edfa 1fbc 489f 543c
00000390: 1f33 80bd ec75 623d 767f b9bd f3a7 4fbc
000003a0: fa16 abbc abb3 e93b b388 683d 0a4d 1abd
000003b0: 36e8 72bd 2869 053d 5df6 8abd 24b7 30bd
000003c0: fb23 383d ecea 473d bf36 ad3d f581 d4ba
000003d0: d1dd 8cbd 9c18 d33c ae68 8f3d a052 11bd
000003e0: 2b8b 7d3c 3309 2d3d bce8 9f3d eb2c d33b
000003f0: 9b17 b6bd b974 e13b 7417 053d 2d6c 69bd

decoder.0.bias f4 [32]
0.055161025 0.030148279 0.05488277 -0.07623685 0.040405437 0.051867817 0.022886446 0.08586335
0.068262964 0.017460084 0.07946091 -0.0565503 0.0058268285 0.06286234 -0.05876633 0.023845648
0.059521187 0.082063906 -0.01407288 0.014628873 -0.07223351 -0.06151248 -0.06442723 0.05537513
0.08192558 -0.07990016 0.05882999 -0.023811307 -0.016403742 -0.045408905 -0.013665762 -0.07930604
00000000: 87f0 613d 86f9 f63c c1cc 603d 1122 9cbd
00000010: 2c80 253d 5973 543d 5b7c bb3c 20d9 af3d
00000020: 74cd 8b3d 7308 8f3c 67bc a23d 4aa1 67bd
00000030: fbee be3b f8bd 803d f7b4 70bd f357 c33c
00000040: 7dcc 733d 1f11 a83d f091 66bc f1ad 6f3c
00000050: 2aef 93bd 83f4 7bbd 6cf2 83bd 08d1 623d
00000060: 99c8 a73d b2a2 a3bd b7f7 703d ee0f c3bc
00000070: 2461 86bc b0fe 39bd 5ce6 5fbc 356b a2bd

decoder.1.weight f4 [32]
0.9831024 1.0110375 1.0397724 0.9501918 1.0163484 1.0155789 0.97355366 0.98864204
0.92759264 0.99026173 0.9748482 0.9887871 1.0164855 1.0018582 1.0302204 0.9758711
1.0188237 0.9864192 0.9702096 0.9867907 0.9928942 1.0084182 0.98119634 0.98600924
1.0365292 1.0397968 1.0254226 1.0106595 0.98471296 1.02215 0.93400025 1.034684
00000000: 99ac 7b3f ad69 813f 4317 853f c53f 733f
00000010: b417 823f 7dfe 813f d03a 793f a517 7d3f
00000020: b676 6d3f cb81 7d3f a78f 793f 2721 7d3f
00000030: 321c 823f e43c 803f 43de 833f b0d2 793f
00000040: d168 823f f885 7c3f a85f 783f 519e 7c3f
00000050: 502e 7e3f d913 813f af2f 7b3f 1a6b 7c3f
00000060: fdac 843f 1018 853f 0c41 833f 4a5d 813f
00000070: 2616 7c3f d0d5 823f a41a 6f3f 8670 843f

decoder.1.bias f4 [32]
-0.015091854 -0.041443076 -0.08382982 -0.060066327 0.030243529 0.031074066 -0.12787497 -0.026470732
-0.07596471 -0.046106454 -0.0807575 -0.01853848 -0.08151783 -0.055482138 -0.08485308 -0.051785618
-0.02311608 -0.0685741 -0.09748395 -0.08058065 -0.051503345 -0.01001011 -0.10749149 -0.064845674
0.012044749 -0.005648538 -0.0040367334 -0.048483577 -0.02580359 -0.024896173 -0.05906008 0.024531677
00000000: d343 77bc 37c0 29bd f8ae abbd 1c08 76bd
00000010: 47c1 f73c 0a8f fe3c a8f1 02be 26d9 d8bc
00000020: 6393 9bbd 1fda 3cbd 3064 a5bd 03de 97bc
00000030: d2f2 a6bd 3d41 63bd 74c7 adbd 281d 54bd
00000040: ef5d bdbc 9470 8cbd aaa5 c7bd 7807 a5bd
00000050: 2cf5 52bd 7201 24bc 8024 dcbd cfcd 84bd
00000060: 5757 453c 5f17 b9bb 9346 84bb b796 46bd
00000070: 0d62 d3bc 0ff3 cbbc fce8 71bd a8f6 c83c

decoder.1.running_mean f4 [32]
-0.48552442 -0.3464165 0.46317595 -0.20982938 -0.08115245 -0.34239396 0.08025729 0.17093992
-0.30119756 -0.1268563 0.29147562 -0.12756719 0.23677413 0.12111502 0.4308535 -0.18151903
0.07866827 0.28848773 -0.18289849 -0.3685943 0.15827446 -0.0027128658 -0.113364816 0.25556454
-0.09039143 -0.43401253 0.036903184 -0.24466558 0.15395878 0.15831544 0.1279373 -0.2809535
00000000: a896 f8be 815d b1be 6625 ed3e 83dd 56be
00000010: 4133 a6bd 434e afbe ef5d a43d e00a 2f3e
00000020: 9136 9abe 9ee6 01be 4b3c 953e f9a0 02be
00000030: eb74 723e 270b f83d d498 dc3e 20e0 39be
00000040: d41c a13d aab4 933e be49 3bbe 64b8 bcbe
00000050: b312 223e 56ca 31bb d02b e8bd 5bd9 823e
00000060: 241f b9bd e436 debe cb27 173d 9d89 7abe
00000070: 5fa7 1d3e 711d 223e ff01 033e 23d9 8fbe

decoder.1.running_var f4 [32]
0.62036055 0.24936615 0.23112528 0.86945456 0.21449411 0.17686641 0.24316064 0.25943136
1.2605166 0.24220157 0.21554343 0.30464992 0.25109592 0.28858557 0.20369783 0.3472419
0.28109825 0.24530675 0.38443315 0.33112693 0.20454691 0.2619291 0.18568677 0.2856733
0.21659121 0.25178805 0.24046831 0.23384203 0.1650095 0.20193265 0.46652517 0.20346667
00000000: f3cf 1e3f d759 7f3e 1bac 6c3e 9394 5e3f
00000010: 58a4 5b3e 781c 353e 1aff 783e 30d4 843e
00000020: 9c58 a13f b003 783e 6bb7 5c3e 13fb 9b3e
00000030: a58f 803e 7dc1 933e 2a96 503e b1c9 b13e
00000040: 1cec 8f3e b131 7b3e 6cd4 c43e 7889 a93e
00000050: bf74 513e 921b 863e ac24 3e3e c543 923e
00000060: 16ca 5d3e 5dea 803e 533d 763e 4974 6f3e
00000070: 40f8 283e 6fc7 4e3e 63dc ee3e 9159 503e

decoder.3.weight f4 [16, 32, 3, 3]
-0.013446821 0.005342013 0.01613794 -0.052239392 0.030808264 0.03795452 0.0092895 0.047521412
-0.078732654 -0.039354898 0.0116216885 -0.048455715 -0.0034092613 -0.10672824 -0.010010884 0.027876306
-0.0722477 0.032004848 -0.073230065 -0.0301565 -0.054673072 0.10317051 0.022899212 0.059514873
0.07039319 -0.07579355 0.048635498 -0.020200178 -0.016433261 0.02797968 -0.017635455 0.058732875
-0.045464322 0.03469448 0.038550254 -0.009697193 0.015252781 0.08621437 0.10235401 0.029611869
-0.052491263 -0.02728285 0.02229387 0.041174408 -0.076321885 0.011374125 -0.026762756 0.08360933
0.08847478 0.06620039 0.014078579 0.027687583 0.03140427 -0.09250345 0.065482326 0.022247043
0.0075162966 0.07424552 -0.00071971497 0.015488551 0.0026765538 -0.0672331 -0.034306575 0.054482307
-0.08196254 -0.017536674 0.048235588 0.019012365 0.049438167 -0.020433001 -0.09982897 -0.028192934
-0.04022596 0.06826275 0.03967071 -0.012592376 0.03850527 -0.0069442685 0.0046133106 -0.04220906
-0.119862914 0.009414012 0.050530005 -0.07068124 0.005703419 0.022289652 -0.10431671 0.00029201043
0.08495673 -0.069715224 0.02433099 -0.0088469125 0.03868595 -0.009738506 0.028599974 0.03716166
-0.009802687 0.014103656 -0.059110254 -0.014260216 0.04519602 -0.022879003 -0.030599972 0.024586994
-0.014993539 0.055624202 0.018468801 0.014129513 0.012322939 0.05830011 -0.026348045 -0.10458411
0.013387936 0.03665501 0.08201541 -0.032490738 -0.03588034 0.054138236 0.062007714 -0.0112732155
-0.046718005 -0.017116547 -0.027797686 -0.066643625 -0.111665554 -0.079051904 0.078153424 0.06671869
-0.14780739 -0.008646604 -0.016081903 0.03367231 -0.103162676 -0.009389355 -0.12555511 0.015287807
-0.033831093 0.03129121 -0.038778175 -0.0547764 0.056221135 0.07478481 -0.06569921 -0.03939726
-0.024271749 -0.046845187 -0.028302912 0.02730373 -0.08094176 -0.15445785 0.09235742 0.021933151
-0.09506532 0.024098113 -0.03912127 -0.014846067 -0.108057946 0.03813266 -0.07905441 0.004249127
0.014985041 -0.06785728 0.065569095 -0.039198678 0.004390671 0.04141809 0.020823104 -0.008320557
-0.027693285 -0.08198039 -0.04607937 -0.0479282 0.025994375 -0.0734944 -0.0070210434 0.029235115
0.024459576 0.0006354865 -0.035706155 0.048970066 -0.092633404 -0.073468074 -0.074287415 -0.029209634
-0.06414605 -0.12856574 0.0427333 -0.04991798 -0.08147493 -0.09308075 0.015974216 -0.03076683
0.016528111 0.023403397 -0.051249027 0.059401587 -0.037089493 -0.032990903 0.07077105 -0.009285923
0.026247678 0.026435552 0.0109926555 0.06706685 0.0028827607 0.031709738 -0.022237746 0.19696032
-0.054158676 -0.1136211 -0.032548126 0.029395746 0.00057839754 -0.0020646008 -0.024741834 -0.011109559
0.08232511 -0.11483043 -0.048970416 0.07428329 0.009777814 -0.057766158 -0.04398166 0.048738446
0.002681947 0.15020075 0.022849815 0.048737522 0.049629435 0.071636416 -0.01779265 0.016599631
-0.015220776 0.03119568 -0.0038838496 0.042131543 -0.050793614 0.060557786 0.07521686 -0.05925925
-0.03276109 0.067293406 0.07858638 0.05097337 -0.03479275 0.06744796 0.012269628 -0.01999744
0.034606162 -0.05258209 0.09633905 -0.14082457 0.032455932 -0.012117079 -0.053599715 0.01444017
00000000: 0e50 5cbc 0e0c af3b b733 843c f9f8 55bd
00000010: 9d61 fc3c 3376 1b3d fd32 183c d0a5 423d
00000020: 963e a1bd 9a32 21bd e568 3e3c 8079 46bd
00000030: ea6d 5fbb 5694 dabd b104 24bc da5c e43c
00000040: 9af6 93bd 8417 033d a5f9 95bd c40a f7bc
00000050: dff0 5fbd 0f4b d33d 2197 bb3c dec5 733d
00000060: 4e2a 903d a639 9bbd 0436 473d d87a a5bc
00000070: 0c9f 86bc a435 e53c 3b78 90bc e291 703d
00000080: cc38 3abd cd1b 0e3d dfe6 1d3d fae0 1ebc
00000090: cde6 793c 2991 b03d fb9e d13d 9794 f23c
000000a0: 1401 57bd 4980 dfbc a2a1 b63c 7fa6 283d
000000b0: a64e 9cbd 8a5a 3a3c 913d dbbc 5e3b ab3d
000000c0: 4432 b53d 1294 873d d7a9 663c 12d1 e23c
000000d0: c4a1 003d 7372 bdbd 991b 863d 6e3f b63c
000000e0: 444b f63b 090e 983d 41ab 3cba b1c3 7d3c
000000f0: 1f69 2f3b 82b1 89bd 0d85 0cbd d728 5f3d
00000100: fadb a7bd 12a9 8fbc ae92 453d d2bf 9b3c
00000110: ad7f 4a3d 1c63 a7bc 2273 ccbd def4 e6bc
00000120: fac3 24bd 57cd 8b3d c17d 223d 4150 4ebc
00000130: b4b7 1d3d bf8c e3bb 412b 973b 68e3 2cbd
00000140: b07a f5bd 3a3d 1a3c 8df8 4e3d 53c1 90bd
00000150: bfe3 ba3b ca98 b63c 00a4 d5bd fa18 9939
00000160: cbfd ad3d dbc6 8ebd c951 c73c a4f2 10bc
00000170: 2975 1e3d 418e 1fbc 7e4a ea3c d336 183d
00000180: 739b 20bc 0513 673c 981d 72bd aea3 69bc
00000190: 761f 393d bf6c bbbc cbac fabc aa6a c93c
000001a0: 76a7 75bc 34d6 633d e24b 973c 797f 673c
000001b0: 27e6 493c 19cc 6e3d dbd7 d7bc 3230 d6bd
000001c0: 1359 5b3c 9023 163d b2f7 a73d 0215 05bd
000001d0: 43f7 12bd 0ec0 5d3d cdfb 7d3d 4bb3 38bc
000001e0: 615b 3fbd 0038 8cbc f9b7 e3bc 747c 88bd
000001f0: e9b0 e4bd f7e5 a1bd e70e a03d cfa3 883d
00000200: d25a 17be 7caa 0dbc 32be 83bc faeb 093d
00000210: f446 d3bd cfd5 19bc 8591 00be b679 7a3c
00000220: 7992 0abd 362b 003d ddd5 1ebd 385d 60bd
00000230: 2248 663d c728 993d 4f8d 86bd 055f 21bd
00000240: 8cd5 c6bc bde0 3fbd 82db e7bc 12ac df3c
00000250: cbc4 a5bd 332a 1ebe e325 bd3d 27ad b33c
00000260: 9bb1 c2bd 6869 c53c a03d 20bd eb3c 73bc
00000270: 7c4d ddbd fe30 1c3d 47e7 a1bd 433c 8b3b
00000280: d183 753c c2f8 8abd 1749 863d cb8e 20bd
00000290: 9edf 8f3b 04a6 293d 3795 aa3c f252 08bc
000002a0: 07dd e2bc 56e5 a7bd b9bd 3cbd 5c50 44bd
000002b0: 28f2 d43c 3b84 96bd c810 e6bb 7b7e ef3c
000002c0: 735f c83c c796 263a 9e40 12bd d694 483d
000002d0: 95b6 bdbd 6e76 96bd 0024 98bd 0b49 efbc
000002e0: 015f 83bd bda6 03be 1d09 2f3d cc76 4cbd
000002f0: 54dc a6bd 1fa1 bebd 5cdc 823c b80a fcbc
00000300: f665 873c 7bb8 bf3c 80ea 51bd 144f 733d
00000310: 27eb 17bd 7821 07bd 6af0 903d fc23 18bc
00000320: 5f05 d73c 5f8f d83c 8a1a 343c 585a 893d
00000330: b3ec 3c3b 12e2 013d ef2b b6bc f7af 493e
00000340: 7dd5 5dbd 2eb2 e8bd 2f51 05bd 59cf f03c
00000350: 9a9f 173a 414e 07bb 63af cabc de04 36bc
00000360: 119a a83d 372c ebbd 3495 48bd d621 983d
00000370: 2033 203c 359c 6cbd 1d26 34bd f7a1 473d
00000380: 9bc3 2f3b 3ace 193e 892f bb3c ffa0 473d
00000390: 3c48 4b3d 1db6 923d e4c1 91bc f3fb 873c
000003a0: 9060 79bc 158e ff3c 2f88 7ebb 2092 2c3d
000003b0: f70c 50bd 710b 783d 4c0b 9a3d d4b9 72bd
000003c0: 7e30 06bd 20d1 893d e5f1 a03d 74c9 503d
000003d0: d882 0ebd 2822 8a3d 8d06 493c acd1 a3bc
000003e0: 31bf 0d3d 5160 57bd 684d c53d 5134 10be
000003f0: 83f0 043d b786 46bc 608b 5bbd 7696 6c3c

decoder.3.bias f4 [16]
0.030242339 -0.036945034 -0.03043029 -0.044963058 -0.019826762 -0.061479706 -0.013028166 0.0021838404
-0.05269456 0.021532783 -0.051172238 0.014862137 0.02263114 -0.023973487 -0.013726166 0.055762775
00000000: c8be f73c ad53 17bd f248 f9bc 2f2b 38bd
00000010: bc6b a2bc 25d2 7bbd 1774 55bc c31e 0f3b
00000020: 40d6 57bd 8565 b03c fb99 51bd 5280 733c
00000030: f164 b93c 0c64 c4bc b7e3 60bc 8267 643d

decoder.4.weight f4 [16]
1.023698 1.032259 1.0352471 1.0302441 1.0143458 1.0417681 1.0259001 1.0169296
1.0326682 1.0073047 0.9857885 1.0318856 1.0521183 1.0326911 1.021552 1.036824
00000000: 8908 833f 1021 843f fa82 843f 0adf 833f
00000010: 15d6 813f a858 853f b250 833f c02a 823f
00000020: 792e 843f 5cef 803f a35c 7c3f d414 843f
00000030: d0ab 863f 392f 843f 37c2 823f a6b6 843f

decoder.4.bias f4 [16]
0.013277276 0.005913723 0.015105078 0.0039225463 0.014873676 0.03359564 0.032586902 0.012858194
0.028830051 0.02182764 -0.0173107 -0.032363415 0.005547101 0.016550533 0.017603545 -0.011777886
00000000: ef88 593c e7c7 c13b 4a7b 773c b488 803b
00000010: b8b0 733c 959b 093d d879 053d 2dab 523c
00000020: 002d ec3c e1cf b23c 2bcf 8dbc 808f 04bd
00000030: 75c4 b53b fc94 873c 4f35 903c 09f8 40bc

decoder.4.running_mean f4 [16]
0.07303173 0.11978213 -0.24233472 -0.2645754 -0.18592012 0.20386215 0.0027255684 -0.22895755
-0.00908549 -0.008467139 -0.2445972 -0.12108312 0.074813955 0.03244679 -0.24061917 0.13403395
00000000: a991 953d 5550 f53d 9826 78be 6d76 87be
00000010: d861 3ebe 3dc1 503e 739f 323b d973 6abe
00000020: 4fdb 14bc c1b9 0abc b077 7abe 6dfa f7bd
00000030: 0f38 993d ede6 043d df64 76be 3240 093e

decoder.4.running_var f4 [16]
0.27960783 0.16397022 0.1636243 0.20860174 0.19043328 0.16851327 0.21146287 0.18556388
0.16971356 0.16284457 0.19473799 0.19748317 0.205782 0.18948106 0.19329526 0.18593624
00000000: c228 8f3e cfe7 273e 218d 273e b29b 553e
00000010: f100 433e be8e 2c3e b989 583e 7504 3e3e
00000020: 64c9 2d3e bac0 263e 6569 473e 0739 4a3e
00000030: 84b8 523e 5307 423e 31ef 453e 1266 3e3e

decoder.6.weight f4 [2, 16, 3, 3]
0.14418305 0.09712676 0.015390075 -0.011265658 -0.013058018 0.08509789 -0.122739226 0.071585916
0.045210965 0.065687016 0.123203754 -0.063929126 -0.08369509 -0.08100993 -0.006182563 -0.10339587
0.09394974 -0.060058426 -0.099422686 0.024959462 -0.07838203 -0.06792333 -0.11445714 0.048694808
0.07036686 -0.064109765 0.06323452 -0.042930186 -0.09558186 -0.079169475 -0.06811451 0.04653501
0.0055710454 -0.07872375 0.022649197 -0.10086475 0.10204582 -0.056628663 -0.007813183 0.02412301
0.01191098 -0.05676374 -0.046631373 -0.0023847965 0.050782803 0.06326553 -0.06753753 0.076596744
0.10388459 -0.01774871 0.03015793 -0.03415403 0.065732464 0.015472739 0.048818108 0.106743924
0.037887562 -0.0013756955 -0.09098701 -0.028808717 -0.014732398 -0.06043525 -0.040520478 0.043049697
-0.018276075 0.0011269624 -0.039267283 -0.10157312 0.029684085 0.04782745 0.11168606 0.028828505
0.07763596 0.024342956 -0.042636335 -0.02721233 -0.05319008 -0.059577495 -0.046348214 -0.012932842
-0.06416931 -0.08806919 0.08138919 0.13444069 -0.019051205 0.057765532 0.07228168 -0.07670245
0.10901984 -0.08848796 -0.092597015 0.030100055 -0.05431643 -0.0070423847 -0.09825236 0.036542084
-0.06866436 -0.05929637 0.085126534 -0.27176493 0.016208408 -0.044581518 -0.045193553 0.11182075
-0.08520684 0.018507749 0.10394713 -0.02088427 0.023538228 0.009496929 -0.068416506 0.03599476
0.07514286 0.10802768 -0.008647013 0.049879674 -0.113075286 0.06625228 0.08191407 0.12207076
-0.0568949 -0.057180233 0.107613906 0.058863048 0.022484045 -0.028878985 0.042514272 0.0086386185
-0.025628844 -0.08330594 -0.10440687 -0.10776881 -0.08419375 0.042109422 0.041994724 0.0005096983
-0.08003035 -0.20841321 0.07975701 0.023361484 -0.051753353 0.081647545 0.08001896 0.10921937
0.051089857 -0.06064718 -0.10530343 0.04985448 -0.017522309 -0.012487172 -0.10874841 -0.08253292
0.054983314 -0.043031137 -0.021399083 0.084622055 -0.057852577 -0.06286805 -0.09956007 -0.1139721
-0.0804954 -0.020900588 0.04232585 0.07662269 0.10495778 -0.04709562 0.09290844 0.038218983
-0.031871423 0.015267256 0.08831982 0.03760335 0.014836553 -0.04075409 -0.03752113 0.09613441
0.054525413 0.19503468 -0.0129289 -0.08181122 -0.121084504 0.061472483 -0.014969314 -0.092734545
0.09575136 -0.10608196 -0.08747163 -0.07136955 0.03630367 0.106607325 0.031977758 0.11176907
0.027099963 0.110339604 0.021866774 0.021207586 0.06565032 0.1307644 -0.033392217 0.11031125
-0.021115735 -0.020675823 -0.10317192 0.045318324 0.09269464 0.043605722 0.05956674 0.10026657
0.039964646 -0.11841516 -0.019312173 -0.04618769 0.11206175 -0.038944684 0.043227892 -0.052613366
-0.101808414 -0.058014974 0.10027703 -0.12682557 0.0961839 0.09654418 0.07728565 -0.046704233
0.14709498 -0.09787008 0.015463773 -0.037012804 -0.019389 -0.0043277703 -0.07732133 -0.09263253
-0.08398642 0.038917497 -0.043598082 0.0014880117 -0.11964101 0.057671826 -0.010060006 0.03980296
-0.09919454 0.041650012 -0.027192127 0.030675275 -0.005382723 0.08782789 0.11035821 -0.043569136
-0.1106022 0.035792924 -0.09491353 0.011929606 -0.10743866 0.035695728 0.11944674 0.08378901
00000000: b9a4 133e 65ea c63d a726 7c3c 9893 38bc
00000010: 4cf1 55bc cd47 ae3d b45e fbbd a39b 923d
00000020: 222f 393d ea86 863d 4052 fc3d 46ed 82bd
00000030: 5568 abbd 89e8 a5bd 1997 cabb 37c1 d3bd
00000040: b968 c03d d3ff 75bd 1f9e cbbd c977 cc3c
00000050: c286 a0bd 631b 8bbd 8168 eabd 3574 473d
00000060: 801c 903d fb4b 83bd 1a81 813d 90d7 2fbd
00000070: 6cc0 c3bd 9b23 a2bd 9f7f 8bbd 7f9b 3e3d
00000080: 518d b63b eb39 a1bd cf8a b93c 2e92 cebd
00000090: 66fd d03d 75f3 67bd dd02 00bc 9e9d c53c
000000a0: 4526 433c 1881 68bd 8a00 3fbd 3f4a 1cbb
000000b0: a101 503d 5c91 813d 1e51 8abd c1de 9c3d
000000c0: 72c1 d43d be65 91bc c30d f73c 19e5 0bbd
000000d0: be9e 863d 5f81 7d3c 7ff5 473d 8f9c da3d
000000e0: fd2f 1b3d ae50 b4ba 6657 babd 4200 ecbc
000000f0: 2860 71bc f48a 77bd cdf8 25bd e154 303d
00000100: b5b7 95bc 95b6 933a bbd6 20bd 9105 d0bd
00000110: 0a2c f33c b7e6 433d a9bb e43d c229 ec3c
00000120: 9aff 9e3d e16a c73c 70a3 2ebd 64ec debc
00000130: d7dd 59bd 8807 74bd a0d7 3dbd 45e4 53bc
00000140: 336b 83bd 9f5d b4bd 60af a63d d2aa 093e
00000150: 4611 9cbc 8d9b 6c3d 6b08 943d 2d16 9dbd
00000160: cb45 df3d 2d39 b5bd 81a3 bdbd 6494 f63c
00000170: e87a 5ebd cec3 e6bb 8938 c9bd 27ad 153d
00000180: e69f 8cbd c0e0 72bd d256 ae3d c624 8bbe
00000190: 7fc7 843c 1c9b 36bd e01c 39bd 4702 e53d
000001a0: ec80 aebd 909d 973c 3ce2 d43d 7d15 abbc
000001b0: 3ed3 c03c 0299 1b3c f41d 8cbd 3e6f 133d
000001c0: 80e4 993d 9e3d dd3d 34ac 0dbc a14e 4c3d
000001d0: 0494 e7bd 46af 873d 90c2 a73d 3c00 fa3d
000001e0: a00a 69bd d235 6abd ae64 dc3d 611a 713d
000001f0: 7630 b83c 9f93 ecbc 7223 2e3d fe88 0d3c
00000200: 95f3 d1bc 4e9c aabd 45d3 d5bd e5b5 dcbd
00000210: c66d acbd ee7a 2c3d a902 2c3d 469d 053a
00000220: f4e6 a3bd 466a 55be a557 a33d 9560 bf3c
00000230: 53fb 53bd d436 a73d fbe0 a33d 68ae df3d
00000240: 9943 513d 2d69 78bd 53a9 d7bd 3634 4c3d
00000250: f28a 8fbc ff96 4cbc 7db7 debd 0507 a9bd
00000260: 2f36 613d 6b41 30bd 214d afbc 544e ad3d
00000270: d3f6 6cbd f7c0 80bd 26e6 cbbd 346a e9bd
00000280: c6da a4bd b637 abbc df5d 2d3d 5bec 9c3d
00000290: 1bf4 d63d 56e7 40bd c846 be3d 828b 1c3d
000002a0: 9c8b 02bd 8323 7a3c 06e1 b43d f805 1a3d
000002b0: 0315 733c c3ed 26bd c2af 19bd 1ee2 c43d
000002c0: 0a56 5f3d 2cb7 473e bdd3 53bc a48c a7bd
000002d0: 27fb f7bd 92ca 7b3d db41 75bc 9ceb bdbd
000002e0: 4a19 c43d 8041 d9bd 5324 b3bd 332a 92bd
000002f0: 28b3 143d f154 da3d 1cfb 023d 2fe7 e43d
00000300: be00 de3c bbf9 e13d f321 b33c 88bb ad3c
00000310: ad73 863d 1ae7 053e 47c6 08bd ddea e13d
00000320: e8fa acbc 5860 a9bc cd4b d3bd b59f 393d
00000330: b0d6 bd3d ea9b 323d 41fc 733d 8f58 cd3d
00000340: f8b1 233d a683 f2bd 9034 9ebc 4e2f 3dbd
00000350: a180 e53d 7684 1fbd bb0f 313d 1d81 57bd
00000360: ee80 d0bd 1ca1 6dbd 0b5e cd3d 90de 01be
00000370: 11fc c43d f4b8 c53d f047 9e3d f04c 3fbd
00000380: 11a0 163e 1c70 c8bd c45b 7d3c bd9a 17bd
00000390: aed5 9ebc f8cf 8dbb a55a 9ebd 20b6 bdbd
000003a0: 1201 acbd f467 1f3d e793 32bd 6309 c33a
000003b0: 5906 f5bd 4b39 6c3d b9d2 24bc 6e08 233d
000003c0: 8226 cbbd 3499 2a3d 06c2 debc b74a fb3c
000003d0: 8e61 b0bb 1cdf b33d 7c03 e23d 8d75 32bd
000003e0: 6883 e2bd 9a9b 123d 0662 c2bd 6574 433c
000003f0: cd08 dcbd af35 123d 7ea0 f43d 9399 ab3d

decoder.6.bias f4 [2]
0.059590213 -0.056985628
00000000: de14 743d c369 69bd
